program(1.0)
[buildInfo = dict<tensor<string, []>, tensor<string, []>>({{"coremlc-component-MIL", "3520.4.1"}, {"coremlc-version", "3520.5.1"}, {"coremltools-component-torch", "2.12.0"}, {"coremltools-source-dialect", "TorchScript"}, {"coremltools-version", "9.0"}})]
{
    func main<ios17>(tensor<fp16, [1, 128, 96]> melspectrogram) {
            tensor<int32, [1]> input_1_axes_0 = const()[name = tensor<string, []>("input_1_axes_0"), val = tensor<int32, [1]>([1])];
            tensor<fp16, [1, 1, 128, 96]> input_1_cast_fp16 = expand_dims(axes = input_1_axes_0, x = melspectrogram)[name = tensor<string, []>("input_1_cast_fp16")];
            tensor<string, []> input_3_pad_type_0 = const()[name = tensor<string, []>("input_3_pad_type_0"), val = tensor<string, []>("custom")];
            tensor<int32, [4]> input_3_pad_0 = const()[name = tensor<string, []>("input_3_pad_0"), val = tensor<int32, [4]>([1, 1, 1, 1])];
            tensor<int32, [2]> input_3_strides_0 = const()[name = tensor<string, []>("input_3_strides_0"), val = tensor<int32, [2]>([2, 2])];
            tensor<int32, [2]> input_3_dilations_0 = const()[name = tensor<string, []>("input_3_dilations_0"), val = tensor<int32, [2]>([1, 1])];
            tensor<int32, []> input_3_groups_0 = const()[name = tensor<string, []>("input_3_groups_0"), val = tensor<int32, []>(1)];
            tensor<fp16, [32, 1, 3, 3]> Conv_1_weight_to_fp16 = const()[name = tensor<string, []>("Conv_1_weight_to_fp16"), val = tensor<fp16, [32, 1, 3, 3]>(BLOBFILE(path = tensor<string, []>("@model_path/weights/weight.bin"), offset = tensor<uint64, []>(64)))];
            tensor<fp16, [32]> Conv_1_bias_to_fp16 = const()[name = tensor<string, []>("Conv_1_bias_to_fp16"), val = tensor<fp16, [32]>(BLOBFILE(path = tensor<string, []>("@model_path/weights/weight.bin"), offset = tensor<uint64, []>(704)))];
            tensor<fp16, [1, 32, 64, 48]> input_3_cast_fp16 = conv(bias = Conv_1_bias_to_fp16, dilations = input_3_dilations_0, groups = input_3_groups_0, pad = input_3_pad_0, pad_type = input_3_pad_type_0, strides = input_3_strides_0, weight = Conv_1_weight_to_fp16, x = input_1_cast_fp16)[name = tensor<string, []>("input_3_cast_fp16")];
            tensor<fp16, [1, 32, 64, 48]> input_5_cast_fp16 = silu(x = input_3_cast_fp16)[name = tensor<string, []>("input_5_cast_fp16")];
            tensor<string, []> input_7_pad_type_0 = const()[name = tensor<string, []>("input_7_pad_type_0"), val = tensor<string, []>("custom")];
            tensor<int32, [4]> input_7_pad_0 = const()[name = tensor<string, []>("input_7_pad_0"), val = tensor<int32, [4]>([1, 1, 1, 1])];
            tensor<int32, []> input_7_groups_0 = const()[name = tensor<string, []>("input_7_groups_0"), val = tensor<int32, []>(32)];
            tensor<int32, [2]> input_7_strides_0 = const()[name = tensor<string, []>("input_7_strides_0"), val = tensor<int32, [2]>([1, 1])];
            tensor<int32, [2]> input_7_dilations_0 = const()[name = tensor<string, []>("input_7_dilations_0"), val = tensor<int32, [2]>([1, 1])];
            tensor<fp16, [32, 1, 3, 3]> Conv_4_weight_to_fp16 = const()[name = tensor<string, []>("Conv_4_weight_to_fp16"), val = tensor<fp16, [32, 1, 3, 3]>(BLOBFILE(path = tensor<string, []>("@model_path/weights/weight.bin"), offset = tensor<uint64, []>(832)))];
            tensor<fp16, [32]> Conv_4_bias_to_fp16 = const()[name = tensor<string, []>("Conv_4_bias_to_fp16"), val = tensor<fp16, [32]>(BLOBFILE(path = tensor<string, []>("@model_path/weights/weight.bin"), offset = tensor<uint64, []>(1472)))];
            tensor<fp16, [1, 32, 64, 48]> input_7_cast_fp16 = conv(bias = Conv_4_bias_to_fp16, dilations = input_7_dilations_0, groups = input_7_groups_0, pad = input_7_pad_0, pad_type = input_7_pad_type_0, strides = input_7_strides_0, weight = Conv_4_weight_to_fp16, x = input_5_cast_fp16)[name = tensor<string, []>("input_7_cast_fp16")];
            tensor<fp16, [1, 32, 64, 48]> input_tensor_1_cast_fp16 = silu(x = input_7_cast_fp16)[name = tensor<string, []>("input_tensor_1_cast_fp16")];
            tensor<int32, [2]> input_9_axes_0 = const()[name = tensor<string, []>("input_9_axes_0"), val = tensor<int32, [2]>([2, 3])];
            tensor<bool, []> input_9_keep_dims_0 = const()[name = tensor<string, []>("input_9_keep_dims_0"), val = tensor<bool, []>(true)];
            tensor<fp16, [1, 32, 1, 1]> input_9_cast_fp16 = reduce_mean(axes = input_9_axes_0, keep_dims = input_9_keep_dims_0, x = input_tensor_1_cast_fp16)[name = tensor<string, []>("input_9_cast_fp16")];
            tensor<string, []> input_11_pad_type_0 = const()[name = tensor<string, []>("input_11_pad_type_0"), val = tensor<string, []>("valid")];
            tensor<int32, [2]> input_11_strides_0 = const()[name = tensor<string, []>("input_11_strides_0"), val = tensor<int32, [2]>([1, 1])];
            tensor<int32, [4]> input_11_pad_0 = const()[name = tensor<string, []>("input_11_pad_0"), val = tensor<int32, [4]>([0, 0, 0, 0])];
            tensor<int32, [2]> input_11_dilations_0 = const()[name = tensor<string, []>("input_11_dilations_0"), val = tensor<int32, [2]>([1, 1])];
            tensor<int32, []> input_11_groups_0 = const()[name = tensor<string, []>("input_11_groups_0"), val = tensor<int32, []>(1)];
            tensor<fp16, [8, 32, 1, 1]> Conv_8_weight_to_fp16 = const()[name = tensor<string, []>("Conv_8_weight_to_fp16"), val = tensor<fp16, [8, 32, 1, 1]>(BLOBFILE(path = tensor<string, []>("@model_path/weights/weight.bin"), offset = tensor<uint64, []>(1600)))];
            tensor<fp16, [8]> Conv_8_bias_to_fp16 = const()[name = tensor<string, []>("Conv_8_bias_to_fp16"), val = tensor<fp16, [8]>([0x1.494p-3, 0x1.c7p-2, 0x1.9b8p-3, -0x1.bd4p-6, -0x1.ad8p-4, -0x1.344p-2, 0x1.394p-2, 0x1.e4p-2])];
            tensor<fp16, [1, 8, 1, 1]> input_11_cast_fp16 = conv(bias = Conv_8_bias_to_fp16, dilations = input_11_dilations_0, groups = input_11_groups_0, pad = input_11_pad_0, pad_type = input_11_pad_type_0, strides = input_11_strides_0, weight = Conv_8_weight_to_fp16, x = input_9_cast_fp16)[name = tensor<string, []>("input_11_cast_fp16")];
            tensor<fp16, [1, 8, 1, 1]> input_13_cast_fp16 = silu(x = input_11_cast_fp16)[name = tensor<string, []>("input_13_cast_fp16")];
            tensor<string, []> input_15_pad_type_0 = const()[name = tensor<string, []>("input_15_pad_type_0"), val = tensor<string, []>("valid")];
            tensor<int32, [2]> input_15_strides_0 = const()[name = tensor<string, []>("input_15_strides_0"), val = tensor<int32, [2]>([1, 1])];
            tensor<int32, [4]> input_15_pad_0 = const()[name = tensor<string, []>("input_15_pad_0"), val = tensor<int32, [4]>([0, 0, 0, 0])];
            tensor<int32, [2]> input_15_dilations_0 = const()[name = tensor<string, []>("input_15_dilations_0"), val = tensor<int32, [2]>([1, 1])];
            tensor<int32, []> input_15_groups_0 = const()[name = tensor<string, []>("input_15_groups_0"), val = tensor<int32, []>(1)];
            tensor<fp16, [32, 8, 1, 1]> Conv_11_weight_to_fp16 = const()[name = tensor<string, []>("Conv_11_weight_to_fp16"), val = tensor<fp16, [32, 8, 1, 1]>(BLOBFILE(path = tensor<string, []>("@model_path/weights/weight.bin"), offset = tensor<uint64, []>(2176)))];
            tensor<fp16, [32]> Conv_11_bias_to_fp16 = const()[name = tensor<string, []>("Conv_11_bias_to_fp16"), val = tensor<fp16, [32]>(BLOBFILE(path = tensor<string, []>("@model_path/weights/weight.bin"), offset = tensor<uint64, []>(2752)))];
            tensor<fp16, [1, 32, 1, 1]> input_15_cast_fp16 = conv(bias = Conv_11_bias_to_fp16, dilations = input_15_dilations_0, groups = input_15_groups_0, pad = input_15_pad_0, pad_type = input_15_pad_type_0, strides = input_15_strides_0, weight = Conv_11_weight_to_fp16, x = input_13_cast_fp16)[name = tensor<string, []>("input_15_cast_fp16")];
            tensor<fp16, [1, 32, 1, 1]> first_1_cast_fp16 = sigmoid(x = input_15_cast_fp16)[name = tensor<string, []>("first_1_cast_fp16")];
            tensor<fp16, [1, 32, 64, 48]> input_17_cast_fp16 = mul(x = first_1_cast_fp16, y = input_tensor_1_cast_fp16)[name = tensor<string, []>("input_17_cast_fp16")];
            tensor<string, []> input_19_pad_type_0 = const()[name = tensor<string, []>("input_19_pad_type_0"), val = tensor<string, []>("valid")];
            tensor<int32, [2]> input_19_strides_0 = const()[name = tensor<string, []>("input_19_strides_0"), val = tensor<int32, [2]>([1, 1])];
            tensor<int32, [4]> input_19_pad_0 = const()[name = tensor<string, []>("input_19_pad_0"), val = tensor<int32, [4]>([0, 0, 0, 0])];
            tensor<int32, [2]> input_19_dilations_0 = const()[name = tensor<string, []>("input_19_dilations_0"), val = tensor<int32, [2]>([1, 1])];
            tensor<int32, []> input_19_groups_0 = const()[name = tensor<string, []>("input_19_groups_0"), val = tensor<int32, []>(1)];
            tensor<fp16, [16, 32, 1, 1]> Conv_14_weight_to_fp16 = const()[name = tensor<string, []>("Conv_14_weight_to_fp16"), val = tensor<fp16, [16, 32, 1, 1]>(BLOBFILE(path = tensor<string, []>("@model_path/weights/weight.bin"), offset = tensor<uint64, []>(2880)))];
            tensor<fp16, [16]> Conv_14_bias_to_fp16 = const()[name = tensor<string, []>("Conv_14_bias_to_fp16"), val = tensor<fp16, [16]>(BLOBFILE(path = tensor<string, []>("@model_path/weights/weight.bin"), offset = tensor<uint64, []>(3968)))];
            tensor<fp16, [1, 16, 64, 48]> input_19_cast_fp16 = conv(bias = Conv_14_bias_to_fp16, dilations = input_19_dilations_0, groups = input_19_groups_0, pad = input_19_pad_0, pad_type = input_19_pad_type_0, strides = input_19_strides_0, weight = Conv_14_weight_to_fp16, x = input_17_cast_fp16)[name = tensor<string, []>("input_19_cast_fp16")];
            tensor<string, []> input_21_pad_type_0 = const()[name = tensor<string, []>("input_21_pad_type_0"), val = tensor<string, []>("valid")];
            tensor<int32, [2]> input_21_strides_0 = const()[name = tensor<string, []>("input_21_strides_0"), val = tensor<int32, [2]>([1, 1])];
            tensor<int32, [4]> input_21_pad_0 = const()[name = tensor<string, []>("input_21_pad_0"), val = tensor<int32, [4]>([0, 0, 0, 0])];
            tensor<int32, [2]> input_21_dilations_0 = const()[name = tensor<string, []>("input_21_dilations_0"), val = tensor<int32, [2]>([1, 1])];
            tensor<int32, []> input_21_groups_0 = const()[name = tensor<string, []>("input_21_groups_0"), val = tensor<int32, []>(1)];
            tensor<fp16, [96, 16, 1, 1]> Conv_15_weight_to_fp16 = const()[name = tensor<string, []>("Conv_15_weight_to_fp16"), val = tensor<fp16, [96, 16, 1, 1]>(BLOBFILE(path = tensor<string, []>("@model_path/weights/weight.bin"), offset = tensor<uint64, []>(4096)))];
            tensor<fp16, [96]> Conv_15_bias_to_fp16 = const()[name = tensor<string, []>("Conv_15_bias_to_fp16"), val = tensor<fp16, [96]>(BLOBFILE(path = tensor<string, []>("@model_path/weights/weight.bin"), offset = tensor<uint64, []>(7232)))];
            tensor<fp16, [1, 96, 64, 48]> input_21_cast_fp16 = conv(bias = Conv_15_bias_to_fp16, dilations = input_21_dilations_0, groups = input_21_groups_0, pad = input_21_pad_0, pad_type = input_21_pad_type_0, strides = input_21_strides_0, weight = Conv_15_weight_to_fp16, x = input_19_cast_fp16)[name = tensor<string, []>("input_21_cast_fp16")];
            tensor<fp16, [1, 96, 64, 48]> input_23_cast_fp16 = silu(x = input_21_cast_fp16)[name = tensor<string, []>("input_23_cast_fp16")];
            tensor<string, []> input_25_pad_type_0 = const()[name = tensor<string, []>("input_25_pad_type_0"), val = tensor<string, []>("custom")];
            tensor<int32, [4]> input_25_pad_0 = const()[name = tensor<string, []>("input_25_pad_0"), val = tensor<int32, [4]>([1, 1, 1, 1])];
            tensor<int32, [2]> input_25_strides_0 = const()[name = tensor<string, []>("input_25_strides_0"), val = tensor<int32, [2]>([2, 2])];
            tensor<int32, []> input_25_groups_0 = const()[name = tensor<string, []>("input_25_groups_0"), val = tensor<int32, []>(96)];
            tensor<int32, [2]> input_25_dilations_0 = const()[name = tensor<string, []>("input_25_dilations_0"), val = tensor<int32, [2]>([1, 1])];
            tensor<fp16, [96, 1, 3, 3]> Conv_18_weight_to_fp16 = const()[name = tensor<string, []>("Conv_18_weight_to_fp16"), val = tensor<fp16, [96, 1, 3, 3]>(BLOBFILE(path = tensor<string, []>("@model_path/weights/weight.bin"), offset = tensor<uint64, []>(7488)))];
            tensor<fp16, [96]> Conv_18_bias_to_fp16 = const()[name = tensor<string, []>("Conv_18_bias_to_fp16"), val = tensor<fp16, [96]>(BLOBFILE(path = tensor<string, []>("@model_path/weights/weight.bin"), offset = tensor<uint64, []>(9280)))];
            tensor<fp16, [1, 96, 32, 24]> input_25_cast_fp16 = conv(bias = Conv_18_bias_to_fp16, dilations = input_25_dilations_0, groups = input_25_groups_0, pad = input_25_pad_0, pad_type = input_25_pad_type_0, strides = input_25_strides_0, weight = Conv_18_weight_to_fp16, x = input_23_cast_fp16)[name = tensor<string, []>("input_25_cast_fp16")];
            tensor<fp16, [1, 96, 32, 24]> input_tensor_3_cast_fp16 = silu(x = input_25_cast_fp16)[name = tensor<string, []>("input_tensor_3_cast_fp16")];
            tensor<int32, [2]> input_27_axes_0 = const()[name = tensor<string, []>("input_27_axes_0"), val = tensor<int32, [2]>([2, 3])];
            tensor<bool, []> input_27_keep_dims_0 = const()[name = tensor<string, []>("input_27_keep_dims_0"), val = tensor<bool, []>(true)];
            tensor<fp16, [1, 96, 1, 1]> input_27_cast_fp16 = reduce_mean(axes = input_27_axes_0, keep_dims = input_27_keep_dims_0, x = input_tensor_3_cast_fp16)[name = tensor<string, []>("input_27_cast_fp16")];
            tensor<string, []> input_29_pad_type_0 = const()[name = tensor<string, []>("input_29_pad_type_0"), val = tensor<string, []>("valid")];
            tensor<int32, [2]> input_29_strides_0 = const()[name = tensor<string, []>("input_29_strides_0"), val = tensor<int32, [2]>([1, 1])];
            tensor<int32, [4]> input_29_pad_0 = const()[name = tensor<string, []>("input_29_pad_0"), val = tensor<int32, [4]>([0, 0, 0, 0])];
            tensor<int32, [2]> input_29_dilations_0 = const()[name = tensor<string, []>("input_29_dilations_0"), val = tensor<int32, [2]>([1, 1])];
            tensor<int32, []> input_29_groups_0 = const()[name = tensor<string, []>("input_29_groups_0"), val = tensor<int32, []>(1)];
            tensor<fp16, [4, 96, 1, 1]> Conv_22_weight_to_fp16 = const()[name = tensor<string, []>("Conv_22_weight_to_fp16"), val = tensor<fp16, [4, 96, 1, 1]>(BLOBFILE(path = tensor<string, []>("@model_path/weights/weight.bin"), offset = tensor<uint64, []>(9536)))];
            tensor<fp16, [4]> Conv_22_bias_to_fp16 = const()[name = tensor<string, []>("Conv_22_bias_to_fp16"), val = tensor<fp16, [4]>([0x1.4b8p-4, 0x1.a24p-3, -0x1.15p-4, 0x1.50cp-3])];
            tensor<fp16, [1, 4, 1, 1]> input_29_cast_fp16 = conv(bias = Conv_22_bias_to_fp16, dilations = input_29_dilations_0, groups = input_29_groups_0, pad = input_29_pad_0, pad_type = input_29_pad_type_0, strides = input_29_strides_0, weight = Conv_22_weight_to_fp16, x = input_27_cast_fp16)[name = tensor<string, []>("input_29_cast_fp16")];
            tensor<fp16, [1, 4, 1, 1]> input_31_cast_fp16 = silu(x = input_29_cast_fp16)[name = tensor<string, []>("input_31_cast_fp16")];
            tensor<string, []> input_33_pad_type_0 = const()[name = tensor<string, []>("input_33_pad_type_0"), val = tensor<string, []>("valid")];
            tensor<int32, [2]> input_33_strides_0 = const()[name = tensor<string, []>("input_33_strides_0"), val = tensor<int32, [2]>([1, 1])];
            tensor<int32, [4]> input_33_pad_0 = const()[name = tensor<string, []>("input_33_pad_0"), val = tensor<int32, [4]>([0, 0, 0, 0])];
            tensor<int32, [2]> input_33_dilations_0 = const()[name = tensor<string, []>("input_33_dilations_0"), val = tensor<int32, [2]>([1, 1])];
            tensor<int32, []> input_33_groups_0 = const()[name = tensor<string, []>("input_33_groups_0"), val = tensor<int32, []>(1)];
            tensor<fp16, [96, 4, 1, 1]> Conv_25_weight_to_fp16 = const()[name = tensor<string, []>("Conv_25_weight_to_fp16"), val = tensor<fp16, [96, 4, 1, 1]>(BLOBFILE(path = tensor<string, []>("@model_path/weights/weight.bin"), offset = tensor<uint64, []>(10368)))];
            tensor<fp16, [96]> Conv_25_bias_to_fp16 = const()[name = tensor<string, []>("Conv_25_bias_to_fp16"), val = tensor<fp16, [96]>(BLOBFILE(path = tensor<string, []>("@model_path/weights/weight.bin"), offset = tensor<uint64, []>(11200)))];
            tensor<fp16, [1, 96, 1, 1]> input_33_cast_fp16 = conv(bias = Conv_25_bias_to_fp16, dilations = input_33_dilations_0, groups = input_33_groups_0, pad = input_33_pad_0, pad_type = input_33_pad_type_0, strides = input_33_strides_0, weight = Conv_25_weight_to_fp16, x = input_31_cast_fp16)[name = tensor<string, []>("input_33_cast_fp16")];
            tensor<fp16, [1, 96, 1, 1]> first_3_cast_fp16 = sigmoid(x = input_33_cast_fp16)[name = tensor<string, []>("first_3_cast_fp16")];
            tensor<fp16, [1, 96, 32, 24]> input_35_cast_fp16 = mul(x = first_3_cast_fp16, y = input_tensor_3_cast_fp16)[name = tensor<string, []>("input_35_cast_fp16")];
            tensor<string, []> input_37_pad_type_0 = const()[name = tensor<string, []>("input_37_pad_type_0"), val = tensor<string, []>("valid")];
            tensor<int32, [2]> input_37_strides_0 = const()[name = tensor<string, []>("input_37_strides_0"), val = tensor<int32, [2]>([1, 1])];
            tensor<int32, [4]> input_37_pad_0 = const()[name = tensor<string, []>("input_37_pad_0"), val = tensor<int32, [4]>([0, 0, 0, 0])];
            tensor<int32, [2]> input_37_dilations_0 = const()[name = tensor<string, []>("input_37_dilations_0"), val = tensor<int32, [2]>([1, 1])];
            tensor<int32, []> input_37_groups_0 = const()[name = tensor<string, []>("input_37_groups_0"), val = tensor<int32, []>(1)];
            tensor<fp16, [24, 96, 1, 1]> Conv_28_weight_to_fp16 = const()[name = tensor<string, []>("Conv_28_weight_to_fp16"), val = tensor<fp16, [24, 96, 1, 1]>(BLOBFILE(path = tensor<string, []>("@model_path/weights/weight.bin"), offset = tensor<uint64, []>(11456)))];
            tensor<fp16, [24]> Conv_28_bias_to_fp16 = const()[name = tensor<string, []>("Conv_28_bias_to_fp16"), val = tensor<fp16, [24]>(BLOBFILE(path = tensor<string, []>("@model_path/weights/weight.bin"), offset = tensor<uint64, []>(16128)))];
            tensor<fp16, [1, 24, 32, 24]> input_37_cast_fp16 = conv(bias = Conv_28_bias_to_fp16, dilations = input_37_dilations_0, groups = input_37_groups_0, pad = input_37_pad_0, pad_type = input_37_pad_type_0, strides = input_37_strides_0, weight = Conv_28_weight_to_fp16, x = input_35_cast_fp16)[name = tensor<string, []>("input_37_cast_fp16")];
            tensor<string, []> input_39_pad_type_0 = const()[name = tensor<string, []>("input_39_pad_type_0"), val = tensor<string, []>("valid")];
            tensor<int32, [2]> input_39_strides_0 = const()[name = tensor<string, []>("input_39_strides_0"), val = tensor<int32, [2]>([1, 1])];
            tensor<int32, [4]> input_39_pad_0 = const()[name = tensor<string, []>("input_39_pad_0"), val = tensor<int32, [4]>([0, 0, 0, 0])];
            tensor<int32, [2]> input_39_dilations_0 = const()[name = tensor<string, []>("input_39_dilations_0"), val = tensor<int32, [2]>([1, 1])];
            tensor<int32, []> input_39_groups_0 = const()[name = tensor<string, []>("input_39_groups_0"), val = tensor<int32, []>(1)];
            tensor<fp16, [144, 24, 1, 1]> Conv_29_weight_to_fp16 = const()[name = tensor<string, []>("Conv_29_weight_to_fp16"), val = tensor<fp16, [144, 24, 1, 1]>(BLOBFILE(path = tensor<string, []>("@model_path/weights/weight.bin"), offset = tensor<uint64, []>(16256)))];
            tensor<fp16, [144]> Conv_29_bias_to_fp16 = const()[name = tensor<string, []>("Conv_29_bias_to_fp16"), val = tensor<fp16, [144]>(BLOBFILE(path = tensor<string, []>("@model_path/weights/weight.bin"), offset = tensor<uint64, []>(23232)))];
            tensor<fp16, [1, 144, 32, 24]> input_39_cast_fp16 = conv(bias = Conv_29_bias_to_fp16, dilations = input_39_dilations_0, groups = input_39_groups_0, pad = input_39_pad_0, pad_type = input_39_pad_type_0, strides = input_39_strides_0, weight = Conv_29_weight_to_fp16, x = input_37_cast_fp16)[name = tensor<string, []>("input_39_cast_fp16")];
            tensor<fp16, [1, 144, 32, 24]> input_41_cast_fp16 = silu(x = input_39_cast_fp16)[name = tensor<string, []>("input_41_cast_fp16")];
            tensor<string, []> input_43_pad_type_0 = const()[name = tensor<string, []>("input_43_pad_type_0"), val = tensor<string, []>("custom")];
            tensor<int32, [4]> input_43_pad_0 = const()[name = tensor<string, []>("input_43_pad_0"), val = tensor<int32, [4]>([1, 1, 1, 1])];
            tensor<int32, []> input_43_groups_0 = const()[name = tensor<string, []>("input_43_groups_0"), val = tensor<int32, []>(144)];
            tensor<int32, [2]> input_43_strides_0 = const()[name = tensor<string, []>("input_43_strides_0"), val = tensor<int32, [2]>([1, 1])];
            tensor<int32, [2]> input_43_dilations_0 = const()[name = tensor<string, []>("input_43_dilations_0"), val = tensor<int32, [2]>([1, 1])];
            tensor<fp16, [144, 1, 3, 3]> Conv_32_weight_to_fp16 = const()[name = tensor<string, []>("Conv_32_weight_to_fp16"), val = tensor<fp16, [144, 1, 3, 3]>(BLOBFILE(path = tensor<string, []>("@model_path/weights/weight.bin"), offset = tensor<uint64, []>(23616)))];
            tensor<fp16, [144]> Conv_32_bias_to_fp16 = const()[name = tensor<string, []>("Conv_32_bias_to_fp16"), val = tensor<fp16, [144]>(BLOBFILE(path = tensor<string, []>("@model_path/weights/weight.bin"), offset = tensor<uint64, []>(26304)))];
            tensor<fp16, [1, 144, 32, 24]> input_43_cast_fp16 = conv(bias = Conv_32_bias_to_fp16, dilations = input_43_dilations_0, groups = input_43_groups_0, pad = input_43_pad_0, pad_type = input_43_pad_type_0, strides = input_43_strides_0, weight = Conv_32_weight_to_fp16, x = input_41_cast_fp16)[name = tensor<string, []>("input_43_cast_fp16")];
            tensor<fp16, [1, 144, 32, 24]> input_tensor_5_cast_fp16 = silu(x = input_43_cast_fp16)[name = tensor<string, []>("input_tensor_5_cast_fp16")];
            tensor<int32, [2]> input_45_axes_0 = const()[name = tensor<string, []>("input_45_axes_0"), val = tensor<int32, [2]>([2, 3])];
            tensor<bool, []> input_45_keep_dims_0 = const()[name = tensor<string, []>("input_45_keep_dims_0"), val = tensor<bool, []>(true)];
            tensor<fp16, [1, 144, 1, 1]> input_45_cast_fp16 = reduce_mean(axes = input_45_axes_0, keep_dims = input_45_keep_dims_0, x = input_tensor_5_cast_fp16)[name = tensor<string, []>("input_45_cast_fp16")];
            tensor<string, []> input_47_pad_type_0 = const()[name = tensor<string, []>("input_47_pad_type_0"), val = tensor<string, []>("valid")];
            tensor<int32, [2]> input_47_strides_0 = const()[name = tensor<string, []>("input_47_strides_0"), val = tensor<int32, [2]>([1, 1])];
            tensor<int32, [4]> input_47_pad_0 = const()[name = tensor<string, []>("input_47_pad_0"), val = tensor<int32, [4]>([0, 0, 0, 0])];
            tensor<int32, [2]> input_47_dilations_0 = const()[name = tensor<string, []>("input_47_dilations_0"), val = tensor<int32, [2]>([1, 1])];
            tensor<int32, []> input_47_groups_0 = const()[name = tensor<string, []>("input_47_groups_0"), val = tensor<int32, []>(1)];
            tensor<fp16, [6, 144, 1, 1]> Conv_36_weight_to_fp16 = const()[name = tensor<string, []>("Conv_36_weight_to_fp16"), val = tensor<fp16, [6, 144, 1, 1]>(BLOBFILE(path = tensor<string, []>("@model_path/weights/weight.bin"), offset = tensor<uint64, []>(26688)))];
            tensor<fp16, [6]> Conv_36_bias_to_fp16 = const()[name = tensor<string, []>("Conv_36_bias_to_fp16"), val = tensor<fp16, [6]>([0x1.f14p-4, 0x1.604p-4, 0x1.e9p-4, 0x1.bc4p-3, 0x1.0dp-2, -0x1.028p-4])];
            tensor<fp16, [1, 6, 1, 1]> input_47_cast_fp16 = conv(bias = Conv_36_bias_to_fp16, dilations = input_47_dilations_0, groups = input_47_groups_0, pad = input_47_pad_0, pad_type = input_47_pad_type_0, strides = input_47_strides_0, weight = Conv_36_weight_to_fp16, x = input_45_cast_fp16)[name = tensor<string, []>("input_47_cast_fp16")];
            tensor<fp16, [1, 6, 1, 1]> input_49_cast_fp16 = silu(x = input_47_cast_fp16)[name = tensor<string, []>("input_49_cast_fp16")];
            tensor<string, []> input_51_pad_type_0 = const()[name = tensor<string, []>("input_51_pad_type_0"), val = tensor<string, []>("valid")];
            tensor<int32, [2]> input_51_strides_0 = const()[name = tensor<string, []>("input_51_strides_0"), val = tensor<int32, [2]>([1, 1])];
            tensor<int32, [4]> input_51_pad_0 = const()[name = tensor<string, []>("input_51_pad_0"), val = tensor<int32, [4]>([0, 0, 0, 0])];
            tensor<int32, [2]> input_51_dilations_0 = const()[name = tensor<string, []>("input_51_dilations_0"), val = tensor<int32, [2]>([1, 1])];
            tensor<int32, []> input_51_groups_0 = const()[name = tensor<string, []>("input_51_groups_0"), val = tensor<int32, []>(1)];
            tensor<fp16, [144, 6, 1, 1]> Conv_39_weight_to_fp16 = const()[name = tensor<string, []>("Conv_39_weight_to_fp16"), val = tensor<fp16, [144, 6, 1, 1]>(BLOBFILE(path = tensor<string, []>("@model_path/weights/weight.bin"), offset = tensor<uint64, []>(28480)))];
            tensor<fp16, [144]> Conv_39_bias_to_fp16 = const()[name = tensor<string, []>("Conv_39_bias_to_fp16"), val = tensor<fp16, [144]>(BLOBFILE(path = tensor<string, []>("@model_path/weights/weight.bin"), offset = tensor<uint64, []>(30272)))];
            tensor<fp16, [1, 144, 1, 1]> input_51_cast_fp16 = conv(bias = Conv_39_bias_to_fp16, dilations = input_51_dilations_0, groups = input_51_groups_0, pad = input_51_pad_0, pad_type = input_51_pad_type_0, strides = input_51_strides_0, weight = Conv_39_weight_to_fp16, x = input_49_cast_fp16)[name = tensor<string, []>("input_51_cast_fp16")];
            tensor<fp16, [1, 144, 1, 1]> first_5_cast_fp16 = sigmoid(x = input_51_cast_fp16)[name = tensor<string, []>("first_5_cast_fp16")];
            tensor<fp16, [1, 144, 32, 24]> input_53_cast_fp16 = mul(x = first_5_cast_fp16, y = input_tensor_5_cast_fp16)[name = tensor<string, []>("input_53_cast_fp16")];
            tensor<string, []> first_7_pad_type_0 = const()[name = tensor<string, []>("first_7_pad_type_0"), val = tensor<string, []>("valid")];
            tensor<int32, [2]> first_7_strides_0 = const()[name = tensor<string, []>("first_7_strides_0"), val = tensor<int32, [2]>([1, 1])];
            tensor<int32, [4]> first_7_pad_0 = const()[name = tensor<string, []>("first_7_pad_0"), val = tensor<int32, [4]>([0, 0, 0, 0])];
            tensor<int32, [2]> first_7_dilations_0 = const()[name = tensor<string, []>("first_7_dilations_0"), val = tensor<int32, [2]>([1, 1])];
            tensor<int32, []> first_7_groups_0 = const()[name = tensor<string, []>("first_7_groups_0"), val = tensor<int32, []>(1)];
            tensor<fp16, [24, 144, 1, 1]> Conv_42_weight_to_fp16 = const()[name = tensor<string, []>("Conv_42_weight_to_fp16"), val = tensor<fp16, [24, 144, 1, 1]>(BLOBFILE(path = tensor<string, []>("@model_path/weights/weight.bin"), offset = tensor<uint64, []>(30656)))];
            tensor<fp16, [24]> Conv_42_bias_to_fp16 = const()[name = tensor<string, []>("Conv_42_bias_to_fp16"), val = tensor<fp16, [24]>(BLOBFILE(path = tensor<string, []>("@model_path/weights/weight.bin"), offset = tensor<uint64, []>(37632)))];
            tensor<fp16, [1, 24, 32, 24]> first_7_cast_fp16 = conv(bias = Conv_42_bias_to_fp16, dilations = first_7_dilations_0, groups = first_7_groups_0, pad = first_7_pad_0, pad_type = first_7_pad_type_0, strides = first_7_strides_0, weight = Conv_42_weight_to_fp16, x = input_53_cast_fp16)[name = tensor<string, []>("first_7_cast_fp16")];
            tensor<fp16, [1, 24, 32, 24]> input_55_cast_fp16 = add(x = first_7_cast_fp16, y = input_37_cast_fp16)[name = tensor<string, []>("input_55_cast_fp16")];
            tensor<string, []> input_57_pad_type_0 = const()[name = tensor<string, []>("input_57_pad_type_0"), val = tensor<string, []>("valid")];
            tensor<int32, [2]> input_57_strides_0 = const()[name = tensor<string, []>("input_57_strides_0"), val = tensor<int32, [2]>([1, 1])];
            tensor<int32, [4]> input_57_pad_0 = const()[name = tensor<string, []>("input_57_pad_0"), val = tensor<int32, [4]>([0, 0, 0, 0])];
            tensor<int32, [2]> input_57_dilations_0 = const()[name = tensor<string, []>("input_57_dilations_0"), val = tensor<int32, [2]>([1, 1])];
            tensor<int32, []> input_57_groups_0 = const()[name = tensor<string, []>("input_57_groups_0"), val = tensor<int32, []>(1)];
            tensor<fp16, [144, 24, 1, 1]> Conv_44_weight_to_fp16 = const()[name = tensor<string, []>("Conv_44_weight_to_fp16"), val = tensor<fp16, [144, 24, 1, 1]>(BLOBFILE(path = tensor<string, []>("@model_path/weights/weight.bin"), offset = tensor<uint64, []>(37760)))];
            tensor<fp16, [144]> Conv_44_bias_to_fp16 = const()[name = tensor<string, []>("Conv_44_bias_to_fp16"), val = tensor<fp16, [144]>(BLOBFILE(path = tensor<string, []>("@model_path/weights/weight.bin"), offset = tensor<uint64, []>(44736)))];
            tensor<fp16, [1, 144, 32, 24]> input_57_cast_fp16 = conv(bias = Conv_44_bias_to_fp16, dilations = input_57_dilations_0, groups = input_57_groups_0, pad = input_57_pad_0, pad_type = input_57_pad_type_0, strides = input_57_strides_0, weight = Conv_44_weight_to_fp16, x = input_55_cast_fp16)[name = tensor<string, []>("input_57_cast_fp16")];
            tensor<fp16, [1, 144, 32, 24]> input_59_cast_fp16 = silu(x = input_57_cast_fp16)[name = tensor<string, []>("input_59_cast_fp16")];
            tensor<string, []> input_61_pad_type_0 = const()[name = tensor<string, []>("input_61_pad_type_0"), val = tensor<string, []>("custom")];
            tensor<int32, [4]> input_61_pad_0 = const()[name = tensor<string, []>("input_61_pad_0"), val = tensor<int32, [4]>([2, 2, 2, 2])];
            tensor<int32, [2]> input_61_strides_0 = const()[name = tensor<string, []>("input_61_strides_0"), val = tensor<int32, [2]>([2, 2])];
            tensor<int32, []> input_61_groups_0 = const()[name = tensor<string, []>("input_61_groups_0"), val = tensor<int32, []>(144)];
            tensor<int32, [2]> input_61_dilations_0 = const()[name = tensor<string, []>("input_61_dilations_0"), val = tensor<int32, [2]>([1, 1])];
            tensor<fp16, [144, 1, 5, 5]> Conv_47_weight_to_fp16 = const()[name = tensor<string, []>("Conv_47_weight_to_fp16"), val = tensor<fp16, [144, 1, 5, 5]>(BLOBFILE(path = tensor<string, []>("@model_path/weights/weight.bin"), offset = tensor<uint64, []>(45120)))];
            tensor<fp16, [144]> Conv_47_bias_to_fp16 = const()[name = tensor<string, []>("Conv_47_bias_to_fp16"), val = tensor<fp16, [144]>(BLOBFILE(path = tensor<string, []>("@model_path/weights/weight.bin"), offset = tensor<uint64, []>(52416)))];
            tensor<fp16, [1, 144, 16, 12]> input_61_cast_fp16 = conv(bias = Conv_47_bias_to_fp16, dilations = input_61_dilations_0, groups = input_61_groups_0, pad = input_61_pad_0, pad_type = input_61_pad_type_0, strides = input_61_strides_0, weight = Conv_47_weight_to_fp16, x = input_59_cast_fp16)[name = tensor<string, []>("input_61_cast_fp16")];
            tensor<fp16, [1, 144, 16, 12]> input_tensor_7_cast_fp16 = silu(x = input_61_cast_fp16)[name = tensor<string, []>("input_tensor_7_cast_fp16")];
            tensor<int32, [2]> input_63_axes_0 = const()[name = tensor<string, []>("input_63_axes_0"), val = tensor<int32, [2]>([2, 3])];
            tensor<bool, []> input_63_keep_dims_0 = const()[name = tensor<string, []>("input_63_keep_dims_0"), val = tensor<bool, []>(true)];
            tensor<fp16, [1, 144, 1, 1]> input_63_cast_fp16 = reduce_mean(axes = input_63_axes_0, keep_dims = input_63_keep_dims_0, x = input_tensor_7_cast_fp16)[name = tensor<string, []>("input_63_cast_fp16")];
            tensor<string, []> input_65_pad_type_0 = const()[name = tensor<string, []>("input_65_pad_type_0"), val = tensor<string, []>("valid")];
            tensor<int32, [2]> input_65_strides_0 = const()[name = tensor<string, []>("input_65_strides_0"), val = tensor<int32, [2]>([1, 1])];
            tensor<int32, [4]> input_65_pad_0 = const()[name = tensor<string, []>("input_65_pad_0"), val = tensor<int32, [4]>([0, 0, 0, 0])];
            tensor<int32, [2]> input_65_dilations_0 = const()[name = tensor<string, []>("input_65_dilations_0"), val = tensor<int32, [2]>([1, 1])];
            tensor<int32, []> input_65_groups_0 = const()[name = tensor<string, []>("input_65_groups_0"), val = tensor<int32, []>(1)];
            tensor<fp16, [6, 144, 1, 1]> Conv_51_weight_to_fp16 = const()[name = tensor<string, []>("Conv_51_weight_to_fp16"), val = tensor<fp16, [6, 144, 1, 1]>(BLOBFILE(path = tensor<string, []>("@model_path/weights/weight.bin"), offset = tensor<uint64, []>(52800)))];
            tensor<fp16, [6]> Conv_51_bias_to_fp16 = const()[name = tensor<string, []>("Conv_51_bias_to_fp16"), val = tensor<fp16, [6]>([0x1.238p-3, 0x1.a44p-4, 0x1.de4p-5, 0x1.e08p-2, 0x1.908p-4, -0x1.eecp-5])];
            tensor<fp16, [1, 6, 1, 1]> input_65_cast_fp16 = conv(bias = Conv_51_bias_to_fp16, dilations = input_65_dilations_0, groups = input_65_groups_0, pad = input_65_pad_0, pad_type = input_65_pad_type_0, strides = input_65_strides_0, weight = Conv_51_weight_to_fp16, x = input_63_cast_fp16)[name = tensor<string, []>("input_65_cast_fp16")];
            tensor<fp16, [1, 6, 1, 1]> input_67_cast_fp16 = silu(x = input_65_cast_fp16)[name = tensor<string, []>("input_67_cast_fp16")];
            tensor<string, []> input_69_pad_type_0 = const()[name = tensor<string, []>("input_69_pad_type_0"), val = tensor<string, []>("valid")];
            tensor<int32, [2]> input_69_strides_0 = const()[name = tensor<string, []>("input_69_strides_0"), val = tensor<int32, [2]>([1, 1])];
            tensor<int32, [4]> input_69_pad_0 = const()[name = tensor<string, []>("input_69_pad_0"), val = tensor<int32, [4]>([0, 0, 0, 0])];
            tensor<int32, [2]> input_69_dilations_0 = const()[name = tensor<string, []>("input_69_dilations_0"), val = tensor<int32, [2]>([1, 1])];
            tensor<int32, []> input_69_groups_0 = const()[name = tensor<string, []>("input_69_groups_0"), val = tensor<int32, []>(1)];
            tensor<fp16, [144, 6, 1, 1]> Conv_54_weight_to_fp16 = const()[name = tensor<string, []>("Conv_54_weight_to_fp16"), val = tensor<fp16, [144, 6, 1, 1]>(BLOBFILE(path = tensor<string, []>("@model_path/weights/weight.bin"), offset = tensor<uint64, []>(54592)))];
            tensor<fp16, [144]> Conv_54_bias_to_fp16 = const()[name = tensor<string, []>("Conv_54_bias_to_fp16"), val = tensor<fp16, [144]>(BLOBFILE(path = tensor<string, []>("@model_path/weights/weight.bin"), offset = tensor<uint64, []>(56384)))];
            tensor<fp16, [1, 144, 1, 1]> input_69_cast_fp16 = conv(bias = Conv_54_bias_to_fp16, dilations = input_69_dilations_0, groups = input_69_groups_0, pad = input_69_pad_0, pad_type = input_69_pad_type_0, strides = input_69_strides_0, weight = Conv_54_weight_to_fp16, x = input_67_cast_fp16)[name = tensor<string, []>("input_69_cast_fp16")];
            tensor<fp16, [1, 144, 1, 1]> first_9_cast_fp16 = sigmoid(x = input_69_cast_fp16)[name = tensor<string, []>("first_9_cast_fp16")];
            tensor<fp16, [1, 144, 16, 12]> input_71_cast_fp16 = mul(x = first_9_cast_fp16, y = input_tensor_7_cast_fp16)[name = tensor<string, []>("input_71_cast_fp16")];
            tensor<string, []> input_73_pad_type_0 = const()[name = tensor<string, []>("input_73_pad_type_0"), val = tensor<string, []>("valid")];
            tensor<int32, [2]> input_73_strides_0 = const()[name = tensor<string, []>("input_73_strides_0"), val = tensor<int32, [2]>([1, 1])];
            tensor<int32, [4]> input_73_pad_0 = const()[name = tensor<string, []>("input_73_pad_0"), val = tensor<int32, [4]>([0, 0, 0, 0])];
            tensor<int32, [2]> input_73_dilations_0 = const()[name = tensor<string, []>("input_73_dilations_0"), val = tensor<int32, [2]>([1, 1])];
            tensor<int32, []> input_73_groups_0 = const()[name = tensor<string, []>("input_73_groups_0"), val = tensor<int32, []>(1)];
            tensor<fp16, [40, 144, 1, 1]> Conv_57_weight_to_fp16 = const()[name = tensor<string, []>("Conv_57_weight_to_fp16"), val = tensor<fp16, [40, 144, 1, 1]>(BLOBFILE(path = tensor<string, []>("@model_path/weights/weight.bin"), offset = tensor<uint64, []>(56768)))];
            tensor<fp16, [40]> Conv_57_bias_to_fp16 = const()[name = tensor<string, []>("Conv_57_bias_to_fp16"), val = tensor<fp16, [40]>(BLOBFILE(path = tensor<string, []>("@model_path/weights/weight.bin"), offset = tensor<uint64, []>(68352)))];
            tensor<fp16, [1, 40, 16, 12]> input_73_cast_fp16 = conv(bias = Conv_57_bias_to_fp16, dilations = input_73_dilations_0, groups = input_73_groups_0, pad = input_73_pad_0, pad_type = input_73_pad_type_0, strides = input_73_strides_0, weight = Conv_57_weight_to_fp16, x = input_71_cast_fp16)[name = tensor<string, []>("input_73_cast_fp16")];
            tensor<string, []> input_75_pad_type_0 = const()[name = tensor<string, []>("input_75_pad_type_0"), val = tensor<string, []>("valid")];
            tensor<int32, [2]> input_75_strides_0 = const()[name = tensor<string, []>("input_75_strides_0"), val = tensor<int32, [2]>([1, 1])];
            tensor<int32, [4]> input_75_pad_0 = const()[name = tensor<string, []>("input_75_pad_0"), val = tensor<int32, [4]>([0, 0, 0, 0])];
            tensor<int32, [2]> input_75_dilations_0 = const()[name = tensor<string, []>("input_75_dilations_0"), val = tensor<int32, [2]>([1, 1])];
            tensor<int32, []> input_75_groups_0 = const()[name = tensor<string, []>("input_75_groups_0"), val = tensor<int32, []>(1)];
            tensor<fp16, [240, 40, 1, 1]> Conv_58_weight_to_fp16 = const()[name = tensor<string, []>("Conv_58_weight_to_fp16"), val = tensor<fp16, [240, 40, 1, 1]>(BLOBFILE(path = tensor<string, []>("@model_path/weights/weight.bin"), offset = tensor<uint64, []>(68544)))];
            tensor<fp16, [240]> Conv_58_bias_to_fp16 = const()[name = tensor<string, []>("Conv_58_bias_to_fp16"), val = tensor<fp16, [240]>(BLOBFILE(path = tensor<string, []>("@model_path/weights/weight.bin"), offset = tensor<uint64, []>(87808)))];
            tensor<fp16, [1, 240, 16, 12]> input_75_cast_fp16 = conv(bias = Conv_58_bias_to_fp16, dilations = input_75_dilations_0, groups = input_75_groups_0, pad = input_75_pad_0, pad_type = input_75_pad_type_0, strides = input_75_strides_0, weight = Conv_58_weight_to_fp16, x = input_73_cast_fp16)[name = tensor<string, []>("input_75_cast_fp16")];
            tensor<fp16, [1, 240, 16, 12]> input_77_cast_fp16 = silu(x = input_75_cast_fp16)[name = tensor<string, []>("input_77_cast_fp16")];
            tensor<string, []> input_79_pad_type_0 = const()[name = tensor<string, []>("input_79_pad_type_0"), val = tensor<string, []>("custom")];
            tensor<int32, [4]> input_79_pad_0 = const()[name = tensor<string, []>("input_79_pad_0"), val = tensor<int32, [4]>([2, 2, 2, 2])];
            tensor<int32, []> input_79_groups_0 = const()[name = tensor<string, []>("input_79_groups_0"), val = tensor<int32, []>(240)];
            tensor<int32, [2]> input_79_strides_0 = const()[name = tensor<string, []>("input_79_strides_0"), val = tensor<int32, [2]>([1, 1])];
            tensor<int32, [2]> input_79_dilations_0 = const()[name = tensor<string, []>("input_79_dilations_0"), val = tensor<int32, [2]>([1, 1])];
            tensor<fp16, [240, 1, 5, 5]> Conv_61_weight_to_fp16 = const()[name = tensor<string, []>("Conv_61_weight_to_fp16"), val = tensor<fp16, [240, 1, 5, 5]>(BLOBFILE(path = tensor<string, []>("@model_path/weights/weight.bin"), offset = tensor<uint64, []>(88384)))];
            tensor<fp16, [240]> Conv_61_bias_to_fp16 = const()[name = tensor<string, []>("Conv_61_bias_to_fp16"), val = tensor<fp16, [240]>(BLOBFILE(path = tensor<string, []>("@model_path/weights/weight.bin"), offset = tensor<uint64, []>(100480)))];
            tensor<fp16, [1, 240, 16, 12]> input_79_cast_fp16 = conv(bias = Conv_61_bias_to_fp16, dilations = input_79_dilations_0, groups = input_79_groups_0, pad = input_79_pad_0, pad_type = input_79_pad_type_0, strides = input_79_strides_0, weight = Conv_61_weight_to_fp16, x = input_77_cast_fp16)[name = tensor<string, []>("input_79_cast_fp16")];
            tensor<fp16, [1, 240, 16, 12]> input_tensor_9_cast_fp16 = silu(x = input_79_cast_fp16)[name = tensor<string, []>("input_tensor_9_cast_fp16")];
            tensor<int32, [2]> input_81_axes_0 = const()[name = tensor<string, []>("input_81_axes_0"), val = tensor<int32, [2]>([2, 3])];
            tensor<bool, []> input_81_keep_dims_0 = const()[name = tensor<string, []>("input_81_keep_dims_0"), val = tensor<bool, []>(true)];
            tensor<fp16, [1, 240, 1, 1]> input_81_cast_fp16 = reduce_mean(axes = input_81_axes_0, keep_dims = input_81_keep_dims_0, x = input_tensor_9_cast_fp16)[name = tensor<string, []>("input_81_cast_fp16")];
            tensor<string, []> input_83_pad_type_0 = const()[name = tensor<string, []>("input_83_pad_type_0"), val = tensor<string, []>("valid")];
            tensor<int32, [2]> input_83_strides_0 = const()[name = tensor<string, []>("input_83_strides_0"), val = tensor<int32, [2]>([1, 1])];
            tensor<int32, [4]> input_83_pad_0 = const()[name = tensor<string, []>("input_83_pad_0"), val = tensor<int32, [4]>([0, 0, 0, 0])];
            tensor<int32, [2]> input_83_dilations_0 = const()[name = tensor<string, []>("input_83_dilations_0"), val = tensor<int32, [2]>([1, 1])];
            tensor<int32, []> input_83_groups_0 = const()[name = tensor<string, []>("input_83_groups_0"), val = tensor<int32, []>(1)];
            tensor<fp16, [10, 240, 1, 1]> Conv_65_weight_to_fp16 = const()[name = tensor<string, []>("Conv_65_weight_to_fp16"), val = tensor<fp16, [10, 240, 1, 1]>(BLOBFILE(path = tensor<string, []>("@model_path/weights/weight.bin"), offset = tensor<uint64, []>(101056)))];
            tensor<fp16, [10]> Conv_65_bias_to_fp16 = const()[name = tensor<string, []>("Conv_65_bias_to_fp16"), val = tensor<fp16, [10]>(BLOBFILE(path = tensor<string, []>("@model_path/weights/weight.bin"), offset = tensor<uint64, []>(105920)))];
            tensor<fp16, [1, 10, 1, 1]> input_83_cast_fp16 = conv(bias = Conv_65_bias_to_fp16, dilations = input_83_dilations_0, groups = input_83_groups_0, pad = input_83_pad_0, pad_type = input_83_pad_type_0, strides = input_83_strides_0, weight = Conv_65_weight_to_fp16, x = input_81_cast_fp16)[name = tensor<string, []>("input_83_cast_fp16")];
            tensor<fp16, [1, 10, 1, 1]> input_85_cast_fp16 = silu(x = input_83_cast_fp16)[name = tensor<string, []>("input_85_cast_fp16")];
            tensor<string, []> input_87_pad_type_0 = const()[name = tensor<string, []>("input_87_pad_type_0"), val = tensor<string, []>("valid")];
            tensor<int32, [2]> input_87_strides_0 = const()[name = tensor<string, []>("input_87_strides_0"), val = tensor<int32, [2]>([1, 1])];
            tensor<int32, [4]> input_87_pad_0 = const()[name = tensor<string, []>("input_87_pad_0"), val = tensor<int32, [4]>([0, 0, 0, 0])];
            tensor<int32, [2]> input_87_dilations_0 = const()[name = tensor<string, []>("input_87_dilations_0"), val = tensor<int32, [2]>([1, 1])];
            tensor<int32, []> input_87_groups_0 = const()[name = tensor<string, []>("input_87_groups_0"), val = tensor<int32, []>(1)];
            tensor<fp16, [240, 10, 1, 1]> Conv_68_weight_to_fp16 = const()[name = tensor<string, []>("Conv_68_weight_to_fp16"), val = tensor<fp16, [240, 10, 1, 1]>(BLOBFILE(path = tensor<string, []>("@model_path/weights/weight.bin"), offset = tensor<uint64, []>(106048)))];
            tensor<fp16, [240]> Conv_68_bias_to_fp16 = const()[name = tensor<string, []>("Conv_68_bias_to_fp16"), val = tensor<fp16, [240]>(BLOBFILE(path = tensor<string, []>("@model_path/weights/weight.bin"), offset = tensor<uint64, []>(110912)))];
            tensor<fp16, [1, 240, 1, 1]> input_87_cast_fp16 = conv(bias = Conv_68_bias_to_fp16, dilations = input_87_dilations_0, groups = input_87_groups_0, pad = input_87_pad_0, pad_type = input_87_pad_type_0, strides = input_87_strides_0, weight = Conv_68_weight_to_fp16, x = input_85_cast_fp16)[name = tensor<string, []>("input_87_cast_fp16")];
            tensor<fp16, [1, 240, 1, 1]> first_11_cast_fp16 = sigmoid(x = input_87_cast_fp16)[name = tensor<string, []>("first_11_cast_fp16")];
            tensor<fp16, [1, 240, 16, 12]> input_89_cast_fp16 = mul(x = first_11_cast_fp16, y = input_tensor_9_cast_fp16)[name = tensor<string, []>("input_89_cast_fp16")];
            tensor<string, []> first_13_pad_type_0 = const()[name = tensor<string, []>("first_13_pad_type_0"), val = tensor<string, []>("valid")];
            tensor<int32, [2]> first_13_strides_0 = const()[name = tensor<string, []>("first_13_strides_0"), val = tensor<int32, [2]>([1, 1])];
            tensor<int32, [4]> first_13_pad_0 = const()[name = tensor<string, []>("first_13_pad_0"), val = tensor<int32, [4]>([0, 0, 0, 0])];
            tensor<int32, [2]> first_13_dilations_0 = const()[name = tensor<string, []>("first_13_dilations_0"), val = tensor<int32, [2]>([1, 1])];
            tensor<int32, []> first_13_groups_0 = const()[name = tensor<string, []>("first_13_groups_0"), val = tensor<int32, []>(1)];
            tensor<fp16, [40, 240, 1, 1]> Conv_71_weight_to_fp16 = const()[name = tensor<string, []>("Conv_71_weight_to_fp16"), val = tensor<fp16, [40, 240, 1, 1]>(BLOBFILE(path = tensor<string, []>("@model_path/weights/weight.bin"), offset = tensor<uint64, []>(111488)))];
            tensor<fp16, [40]> Conv_71_bias_to_fp16 = const()[name = tensor<string, []>("Conv_71_bias_to_fp16"), val = tensor<fp16, [40]>(BLOBFILE(path = tensor<string, []>("@model_path/weights/weight.bin"), offset = tensor<uint64, []>(130752)))];
            tensor<fp16, [1, 40, 16, 12]> first_13_cast_fp16 = conv(bias = Conv_71_bias_to_fp16, dilations = first_13_dilations_0, groups = first_13_groups_0, pad = first_13_pad_0, pad_type = first_13_pad_type_0, strides = first_13_strides_0, weight = Conv_71_weight_to_fp16, x = input_89_cast_fp16)[name = tensor<string, []>("first_13_cast_fp16")];
            tensor<fp16, [1, 40, 16, 12]> input_91_cast_fp16 = add(x = first_13_cast_fp16, y = input_73_cast_fp16)[name = tensor<string, []>("input_91_cast_fp16")];
            tensor<string, []> input_93_pad_type_0 = const()[name = tensor<string, []>("input_93_pad_type_0"), val = tensor<string, []>("valid")];
            tensor<int32, [2]> input_93_strides_0 = const()[name = tensor<string, []>("input_93_strides_0"), val = tensor<int32, [2]>([1, 1])];
            tensor<int32, [4]> input_93_pad_0 = const()[name = tensor<string, []>("input_93_pad_0"), val = tensor<int32, [4]>([0, 0, 0, 0])];
            tensor<int32, [2]> input_93_dilations_0 = const()[name = tensor<string, []>("input_93_dilations_0"), val = tensor<int32, [2]>([1, 1])];
            tensor<int32, []> input_93_groups_0 = const()[name = tensor<string, []>("input_93_groups_0"), val = tensor<int32, []>(1)];
            tensor<fp16, [240, 40, 1, 1]> Conv_73_weight_to_fp16 = const()[name = tensor<string, []>("Conv_73_weight_to_fp16"), val = tensor<fp16, [240, 40, 1, 1]>(BLOBFILE(path = tensor<string, []>("@model_path/weights/weight.bin"), offset = tensor<uint64, []>(130944)))];
            tensor<fp16, [240]> Conv_73_bias_to_fp16 = const()[name = tensor<string, []>("Conv_73_bias_to_fp16"), val = tensor<fp16, [240]>(BLOBFILE(path = tensor<string, []>("@model_path/weights/weight.bin"), offset = tensor<uint64, []>(150208)))];
            tensor<fp16, [1, 240, 16, 12]> input_93_cast_fp16 = conv(bias = Conv_73_bias_to_fp16, dilations = input_93_dilations_0, groups = input_93_groups_0, pad = input_93_pad_0, pad_type = input_93_pad_type_0, strides = input_93_strides_0, weight = Conv_73_weight_to_fp16, x = input_91_cast_fp16)[name = tensor<string, []>("input_93_cast_fp16")];
            tensor<fp16, [1, 240, 16, 12]> input_95_cast_fp16 = silu(x = input_93_cast_fp16)[name = tensor<string, []>("input_95_cast_fp16")];
            tensor<string, []> input_97_pad_type_0 = const()[name = tensor<string, []>("input_97_pad_type_0"), val = tensor<string, []>("custom")];
            tensor<int32, [4]> input_97_pad_0 = const()[name = tensor<string, []>("input_97_pad_0"), val = tensor<int32, [4]>([1, 1, 1, 1])];
            tensor<int32, [2]> input_97_strides_0 = const()[name = tensor<string, []>("input_97_strides_0"), val = tensor<int32, [2]>([2, 2])];
            tensor<int32, []> input_97_groups_0 = const()[name = tensor<string, []>("input_97_groups_0"), val = tensor<int32, []>(240)];
            tensor<int32, [2]> input_97_dilations_0 = const()[name = tensor<string, []>("input_97_dilations_0"), val = tensor<int32, [2]>([1, 1])];
            tensor<fp16, [240, 1, 3, 3]> Conv_76_weight_to_fp16 = const()[name = tensor<string, []>("Conv_76_weight_to_fp16"), val = tensor<fp16, [240, 1, 3, 3]>(BLOBFILE(path = tensor<string, []>("@model_path/weights/weight.bin"), offset = tensor<uint64, []>(150784)))];
            tensor<fp16, [240]> Conv_76_bias_to_fp16 = const()[name = tensor<string, []>("Conv_76_bias_to_fp16"), val = tensor<fp16, [240]>(BLOBFILE(path = tensor<string, []>("@model_path/weights/weight.bin"), offset = tensor<uint64, []>(155200)))];
            tensor<fp16, [1, 240, 8, 6]> input_97_cast_fp16 = conv(bias = Conv_76_bias_to_fp16, dilations = input_97_dilations_0, groups = input_97_groups_0, pad = input_97_pad_0, pad_type = input_97_pad_type_0, strides = input_97_strides_0, weight = Conv_76_weight_to_fp16, x = input_95_cast_fp16)[name = tensor<string, []>("input_97_cast_fp16")];
            tensor<fp16, [1, 240, 8, 6]> input_tensor_11_cast_fp16 = silu(x = input_97_cast_fp16)[name = tensor<string, []>("input_tensor_11_cast_fp16")];
            tensor<int32, [2]> input_99_axes_0 = const()[name = tensor<string, []>("input_99_axes_0"), val = tensor<int32, [2]>([2, 3])];
            tensor<bool, []> input_99_keep_dims_0 = const()[name = tensor<string, []>("input_99_keep_dims_0"), val = tensor<bool, []>(true)];
            tensor<fp16, [1, 240, 1, 1]> input_99_cast_fp16 = reduce_mean(axes = input_99_axes_0, keep_dims = input_99_keep_dims_0, x = input_tensor_11_cast_fp16)[name = tensor<string, []>("input_99_cast_fp16")];
            tensor<string, []> input_101_pad_type_0 = const()[name = tensor<string, []>("input_101_pad_type_0"), val = tensor<string, []>("valid")];
            tensor<int32, [2]> input_101_strides_0 = const()[name = tensor<string, []>("input_101_strides_0"), val = tensor<int32, [2]>([1, 1])];
            tensor<int32, [4]> input_101_pad_0 = const()[name = tensor<string, []>("input_101_pad_0"), val = tensor<int32, [4]>([0, 0, 0, 0])];
            tensor<int32, [2]> input_101_dilations_0 = const()[name = tensor<string, []>("input_101_dilations_0"), val = tensor<int32, [2]>([1, 1])];
            tensor<int32, []> input_101_groups_0 = const()[name = tensor<string, []>("input_101_groups_0"), val = tensor<int32, []>(1)];
            tensor<fp16, [10, 240, 1, 1]> Conv_80_weight_to_fp16 = const()[name = tensor<string, []>("Conv_80_weight_to_fp16"), val = tensor<fp16, [10, 240, 1, 1]>(BLOBFILE(path = tensor<string, []>("@model_path/weights/weight.bin"), offset = tensor<uint64, []>(155776)))];
            tensor<fp16, [10]> Conv_80_bias_to_fp16 = const()[name = tensor<string, []>("Conv_80_bias_to_fp16"), val = tensor<fp16, [10]>(BLOBFILE(path = tensor<string, []>("@model_path/weights/weight.bin"), offset = tensor<uint64, []>(160640)))];
            tensor<fp16, [1, 10, 1, 1]> input_101_cast_fp16 = conv(bias = Conv_80_bias_to_fp16, dilations = input_101_dilations_0, groups = input_101_groups_0, pad = input_101_pad_0, pad_type = input_101_pad_type_0, strides = input_101_strides_0, weight = Conv_80_weight_to_fp16, x = input_99_cast_fp16)[name = tensor<string, []>("input_101_cast_fp16")];
            tensor<fp16, [1, 10, 1, 1]> input_103_cast_fp16 = silu(x = input_101_cast_fp16)[name = tensor<string, []>("input_103_cast_fp16")];
            tensor<string, []> input_105_pad_type_0 = const()[name = tensor<string, []>("input_105_pad_type_0"), val = tensor<string, []>("valid")];
            tensor<int32, [2]> input_105_strides_0 = const()[name = tensor<string, []>("input_105_strides_0"), val = tensor<int32, [2]>([1, 1])];
            tensor<int32, [4]> input_105_pad_0 = const()[name = tensor<string, []>("input_105_pad_0"), val = tensor<int32, [4]>([0, 0, 0, 0])];
            tensor<int32, [2]> input_105_dilations_0 = const()[name = tensor<string, []>("input_105_dilations_0"), val = tensor<int32, [2]>([1, 1])];
            tensor<int32, []> input_105_groups_0 = const()[name = tensor<string, []>("input_105_groups_0"), val = tensor<int32, []>(1)];
            tensor<fp16, [240, 10, 1, 1]> Conv_83_weight_to_fp16 = const()[name = tensor<string, []>("Conv_83_weight_to_fp16"), val = tensor<fp16, [240, 10, 1, 1]>(BLOBFILE(path = tensor<string, []>("@model_path/weights/weight.bin"), offset = tensor<uint64, []>(160768)))];
            tensor<fp16, [240]> Conv_83_bias_to_fp16 = const()[name = tensor<string, []>("Conv_83_bias_to_fp16"), val = tensor<fp16, [240]>(BLOBFILE(path = tensor<string, []>("@model_path/weights/weight.bin"), offset = tensor<uint64, []>(165632)))];
            tensor<fp16, [1, 240, 1, 1]> input_105_cast_fp16 = conv(bias = Conv_83_bias_to_fp16, dilations = input_105_dilations_0, groups = input_105_groups_0, pad = input_105_pad_0, pad_type = input_105_pad_type_0, strides = input_105_strides_0, weight = Conv_83_weight_to_fp16, x = input_103_cast_fp16)[name = tensor<string, []>("input_105_cast_fp16")];
            tensor<fp16, [1, 240, 1, 1]> first_15_cast_fp16 = sigmoid(x = input_105_cast_fp16)[name = tensor<string, []>("first_15_cast_fp16")];
            tensor<fp16, [1, 240, 8, 6]> input_107_cast_fp16 = mul(x = first_15_cast_fp16, y = input_tensor_11_cast_fp16)[name = tensor<string, []>("input_107_cast_fp16")];
            tensor<string, []> input_109_pad_type_0 = const()[name = tensor<string, []>("input_109_pad_type_0"), val = tensor<string, []>("valid")];
            tensor<int32, [2]> input_109_strides_0 = const()[name = tensor<string, []>("input_109_strides_0"), val = tensor<int32, [2]>([1, 1])];
            tensor<int32, [4]> input_109_pad_0 = const()[name = tensor<string, []>("input_109_pad_0"), val = tensor<int32, [4]>([0, 0, 0, 0])];
            tensor<int32, [2]> input_109_dilations_0 = const()[name = tensor<string, []>("input_109_dilations_0"), val = tensor<int32, [2]>([1, 1])];
            tensor<int32, []> input_109_groups_0 = const()[name = tensor<string, []>("input_109_groups_0"), val = tensor<int32, []>(1)];
            tensor<fp16, [80, 240, 1, 1]> Conv_86_weight_to_fp16 = const()[name = tensor<string, []>("Conv_86_weight_to_fp16"), val = tensor<fp16, [80, 240, 1, 1]>(BLOBFILE(path = tensor<string, []>("@model_path/weights/weight.bin"), offset = tensor<uint64, []>(166208)))];
            tensor<fp16, [80]> Conv_86_bias_to_fp16 = const()[name = tensor<string, []>("Conv_86_bias_to_fp16"), val = tensor<fp16, [80]>(BLOBFILE(path = tensor<string, []>("@model_path/weights/weight.bin"), offset = tensor<uint64, []>(204672)))];
            tensor<fp16, [1, 80, 8, 6]> input_109_cast_fp16 = conv(bias = Conv_86_bias_to_fp16, dilations = input_109_dilations_0, groups = input_109_groups_0, pad = input_109_pad_0, pad_type = input_109_pad_type_0, strides = input_109_strides_0, weight = Conv_86_weight_to_fp16, x = input_107_cast_fp16)[name = tensor<string, []>("input_109_cast_fp16")];
            tensor<string, []> input_111_pad_type_0 = const()[name = tensor<string, []>("input_111_pad_type_0"), val = tensor<string, []>("valid")];
            tensor<int32, [2]> input_111_strides_0 = const()[name = tensor<string, []>("input_111_strides_0"), val = tensor<int32, [2]>([1, 1])];
            tensor<int32, [4]> input_111_pad_0 = const()[name = tensor<string, []>("input_111_pad_0"), val = tensor<int32, [4]>([0, 0, 0, 0])];
            tensor<int32, [2]> input_111_dilations_0 = const()[name = tensor<string, []>("input_111_dilations_0"), val = tensor<int32, [2]>([1, 1])];
            tensor<int32, []> input_111_groups_0 = const()[name = tensor<string, []>("input_111_groups_0"), val = tensor<int32, []>(1)];
            tensor<fp16, [480, 80, 1, 1]> Conv_87_weight_to_fp16 = const()[name = tensor<string, []>("Conv_87_weight_to_fp16"), val = tensor<fp16, [480, 80, 1, 1]>(BLOBFILE(path = tensor<string, []>("@model_path/weights/weight.bin"), offset = tensor<uint64, []>(204928)))];
            tensor<fp16, [480]> Conv_87_bias_to_fp16 = const()[name = tensor<string, []>("Conv_87_bias_to_fp16"), val = tensor<fp16, [480]>(BLOBFILE(path = tensor<string, []>("@model_path/weights/weight.bin"), offset = tensor<uint64, []>(281792)))];
            tensor<fp16, [1, 480, 8, 6]> input_111_cast_fp16 = conv(bias = Conv_87_bias_to_fp16, dilations = input_111_dilations_0, groups = input_111_groups_0, pad = input_111_pad_0, pad_type = input_111_pad_type_0, strides = input_111_strides_0, weight = Conv_87_weight_to_fp16, x = input_109_cast_fp16)[name = tensor<string, []>("input_111_cast_fp16")];
            tensor<fp16, [1, 480, 8, 6]> input_113_cast_fp16 = silu(x = input_111_cast_fp16)[name = tensor<string, []>("input_113_cast_fp16")];
            tensor<string, []> input_115_pad_type_0 = const()[name = tensor<string, []>("input_115_pad_type_0"), val = tensor<string, []>("custom")];
            tensor<int32, [4]> input_115_pad_0 = const()[name = tensor<string, []>("input_115_pad_0"), val = tensor<int32, [4]>([1, 1, 1, 1])];
            tensor<int32, []> input_115_groups_0 = const()[name = tensor<string, []>("input_115_groups_0"), val = tensor<int32, []>(480)];
            tensor<int32, [2]> input_115_strides_0 = const()[name = tensor<string, []>("input_115_strides_0"), val = tensor<int32, [2]>([1, 1])];
            tensor<int32, [2]> input_115_dilations_0 = const()[name = tensor<string, []>("input_115_dilations_0"), val = tensor<int32, [2]>([1, 1])];
            tensor<fp16, [480, 1, 3, 3]> Conv_90_weight_to_fp16 = const()[name = tensor<string, []>("Conv_90_weight_to_fp16"), val = tensor<fp16, [480, 1, 3, 3]>(BLOBFILE(path = tensor<string, []>("@model_path/weights/weight.bin"), offset = tensor<uint64, []>(282816)))];
            tensor<fp16, [480]> Conv_90_bias_to_fp16 = const()[name = tensor<string, []>("Conv_90_bias_to_fp16"), val = tensor<fp16, [480]>(BLOBFILE(path = tensor<string, []>("@model_path/weights/weight.bin"), offset = tensor<uint64, []>(291520)))];
            tensor<fp16, [1, 480, 8, 6]> input_115_cast_fp16 = conv(bias = Conv_90_bias_to_fp16, dilations = input_115_dilations_0, groups = input_115_groups_0, pad = input_115_pad_0, pad_type = input_115_pad_type_0, strides = input_115_strides_0, weight = Conv_90_weight_to_fp16, x = input_113_cast_fp16)[name = tensor<string, []>("input_115_cast_fp16")];
            tensor<fp16, [1, 480, 8, 6]> input_tensor_13_cast_fp16 = silu(x = input_115_cast_fp16)[name = tensor<string, []>("input_tensor_13_cast_fp16")];
            tensor<int32, [2]> input_117_axes_0 = const()[name = tensor<string, []>("input_117_axes_0"), val = tensor<int32, [2]>([2, 3])];
            tensor<bool, []> input_117_keep_dims_0 = const()[name = tensor<string, []>("input_117_keep_dims_0"), val = tensor<bool, []>(true)];
            tensor<fp16, [1, 480, 1, 1]> input_117_cast_fp16 = reduce_mean(axes = input_117_axes_0, keep_dims = input_117_keep_dims_0, x = input_tensor_13_cast_fp16)[name = tensor<string, []>("input_117_cast_fp16")];
            tensor<string, []> input_119_pad_type_0 = const()[name = tensor<string, []>("input_119_pad_type_0"), val = tensor<string, []>("valid")];
            tensor<int32, [2]> input_119_strides_0 = const()[name = tensor<string, []>("input_119_strides_0"), val = tensor<int32, [2]>([1, 1])];
            tensor<int32, [4]> input_119_pad_0 = const()[name = tensor<string, []>("input_119_pad_0"), val = tensor<int32, [4]>([0, 0, 0, 0])];
            tensor<int32, [2]> input_119_dilations_0 = const()[name = tensor<string, []>("input_119_dilations_0"), val = tensor<int32, [2]>([1, 1])];
            tensor<int32, []> input_119_groups_0 = const()[name = tensor<string, []>("input_119_groups_0"), val = tensor<int32, []>(1)];
            tensor<fp16, [20, 480, 1, 1]> Conv_94_weight_to_fp16 = const()[name = tensor<string, []>("Conv_94_weight_to_fp16"), val = tensor<fp16, [20, 480, 1, 1]>(BLOBFILE(path = tensor<string, []>("@model_path/weights/weight.bin"), offset = tensor<uint64, []>(292544)))];
            tensor<fp16, [20]> Conv_94_bias_to_fp16 = const()[name = tensor<string, []>("Conv_94_bias_to_fp16"), val = tensor<fp16, [20]>(BLOBFILE(path = tensor<string, []>("@model_path/weights/weight.bin"), offset = tensor<uint64, []>(311808)))];
            tensor<fp16, [1, 20, 1, 1]> input_119_cast_fp16 = conv(bias = Conv_94_bias_to_fp16, dilations = input_119_dilations_0, groups = input_119_groups_0, pad = input_119_pad_0, pad_type = input_119_pad_type_0, strides = input_119_strides_0, weight = Conv_94_weight_to_fp16, x = input_117_cast_fp16)[name = tensor<string, []>("input_119_cast_fp16")];
            tensor<fp16, [1, 20, 1, 1]> input_121_cast_fp16 = silu(x = input_119_cast_fp16)[name = tensor<string, []>("input_121_cast_fp16")];
            tensor<string, []> input_123_pad_type_0 = const()[name = tensor<string, []>("input_123_pad_type_0"), val = tensor<string, []>("valid")];
            tensor<int32, [2]> input_123_strides_0 = const()[name = tensor<string, []>("input_123_strides_0"), val = tensor<int32, [2]>([1, 1])];
            tensor<int32, [4]> input_123_pad_0 = const()[name = tensor<string, []>("input_123_pad_0"), val = tensor<int32, [4]>([0, 0, 0, 0])];
            tensor<int32, [2]> input_123_dilations_0 = const()[name = tensor<string, []>("input_123_dilations_0"), val = tensor<int32, [2]>([1, 1])];
            tensor<int32, []> input_123_groups_0 = const()[name = tensor<string, []>("input_123_groups_0"), val = tensor<int32, []>(1)];
            tensor<fp16, [480, 20, 1, 1]> Conv_97_weight_to_fp16 = const()[name = tensor<string, []>("Conv_97_weight_to_fp16"), val = tensor<fp16, [480, 20, 1, 1]>(BLOBFILE(path = tensor<string, []>("@model_path/weights/weight.bin"), offset = tensor<uint64, []>(311936)))];
            tensor<fp16, [480]> Conv_97_bias_to_fp16 = const()[name = tensor<string, []>("Conv_97_bias_to_fp16"), val = tensor<fp16, [480]>(BLOBFILE(path = tensor<string, []>("@model_path/weights/weight.bin"), offset = tensor<uint64, []>(331200)))];
            tensor<fp16, [1, 480, 1, 1]> input_123_cast_fp16 = conv(bias = Conv_97_bias_to_fp16, dilations = input_123_dilations_0, groups = input_123_groups_0, pad = input_123_pad_0, pad_type = input_123_pad_type_0, strides = input_123_strides_0, weight = Conv_97_weight_to_fp16, x = input_121_cast_fp16)[name = tensor<string, []>("input_123_cast_fp16")];
            tensor<fp16, [1, 480, 1, 1]> first_17_cast_fp16 = sigmoid(x = input_123_cast_fp16)[name = tensor<string, []>("first_17_cast_fp16")];
            tensor<fp16, [1, 480, 8, 6]> input_125_cast_fp16 = mul(x = first_17_cast_fp16, y = input_tensor_13_cast_fp16)[name = tensor<string, []>("input_125_cast_fp16")];
            tensor<string, []> first_19_pad_type_0 = const()[name = tensor<string, []>("first_19_pad_type_0"), val = tensor<string, []>("valid")];
            tensor<int32, [2]> first_19_strides_0 = const()[name = tensor<string, []>("first_19_strides_0"), val = tensor<int32, [2]>([1, 1])];
            tensor<int32, [4]> first_19_pad_0 = const()[name = tensor<string, []>("first_19_pad_0"), val = tensor<int32, [4]>([0, 0, 0, 0])];
            tensor<int32, [2]> first_19_dilations_0 = const()[name = tensor<string, []>("first_19_dilations_0"), val = tensor<int32, [2]>([1, 1])];
            tensor<int32, []> first_19_groups_0 = const()[name = tensor<string, []>("first_19_groups_0"), val = tensor<int32, []>(1)];
            tensor<fp16, [80, 480, 1, 1]> Conv_100_weight_to_fp16 = const()[name = tensor<string, []>("Conv_100_weight_to_fp16"), val = tensor<fp16, [80, 480, 1, 1]>(BLOBFILE(path = tensor<string, []>("@model_path/weights/weight.bin"), offset = tensor<uint64, []>(332224)))];
            tensor<fp16, [80]> Conv_100_bias_to_fp16 = const()[name = tensor<string, []>("Conv_100_bias_to_fp16"), val = tensor<fp16, [80]>(BLOBFILE(path = tensor<string, []>("@model_path/weights/weight.bin"), offset = tensor<uint64, []>(409088)))];
            tensor<fp16, [1, 80, 8, 6]> first_19_cast_fp16 = conv(bias = Conv_100_bias_to_fp16, dilations = first_19_dilations_0, groups = first_19_groups_0, pad = first_19_pad_0, pad_type = first_19_pad_type_0, strides = first_19_strides_0, weight = Conv_100_weight_to_fp16, x = input_125_cast_fp16)[name = tensor<string, []>("first_19_cast_fp16")];
            tensor<fp16, [1, 80, 8, 6]> input_127_cast_fp16 = add(x = first_19_cast_fp16, y = input_109_cast_fp16)[name = tensor<string, []>("input_127_cast_fp16")];
            tensor<string, []> input_129_pad_type_0 = const()[name = tensor<string, []>("input_129_pad_type_0"), val = tensor<string, []>("valid")];
            tensor<int32, [2]> input_129_strides_0 = const()[name = tensor<string, []>("input_129_strides_0"), val = tensor<int32, [2]>([1, 1])];
            tensor<int32, [4]> input_129_pad_0 = const()[name = tensor<string, []>("input_129_pad_0"), val = tensor<int32, [4]>([0, 0, 0, 0])];
            tensor<int32, [2]> input_129_dilations_0 = const()[name = tensor<string, []>("input_129_dilations_0"), val = tensor<int32, [2]>([1, 1])];
            tensor<int32, []> input_129_groups_0 = const()[name = tensor<string, []>("input_129_groups_0"), val = tensor<int32, []>(1)];
            tensor<fp16, [480, 80, 1, 1]> Conv_102_weight_to_fp16 = const()[name = tensor<string, []>("Conv_102_weight_to_fp16"), val = tensor<fp16, [480, 80, 1, 1]>(BLOBFILE(path = tensor<string, []>("@model_path/weights/weight.bin"), offset = tensor<uint64, []>(409344)))];
            tensor<fp16, [480]> Conv_102_bias_to_fp16 = const()[name = tensor<string, []>("Conv_102_bias_to_fp16"), val = tensor<fp16, [480]>(BLOBFILE(path = tensor<string, []>("@model_path/weights/weight.bin"), offset = tensor<uint64, []>(486208)))];
            tensor<fp16, [1, 480, 8, 6]> input_129_cast_fp16 = conv(bias = Conv_102_bias_to_fp16, dilations = input_129_dilations_0, groups = input_129_groups_0, pad = input_129_pad_0, pad_type = input_129_pad_type_0, strides = input_129_strides_0, weight = Conv_102_weight_to_fp16, x = input_127_cast_fp16)[name = tensor<string, []>("input_129_cast_fp16")];
            tensor<fp16, [1, 480, 8, 6]> input_131_cast_fp16 = silu(x = input_129_cast_fp16)[name = tensor<string, []>("input_131_cast_fp16")];
            tensor<string, []> input_133_pad_type_0 = const()[name = tensor<string, []>("input_133_pad_type_0"), val = tensor<string, []>("custom")];
            tensor<int32, [4]> input_133_pad_0 = const()[name = tensor<string, []>("input_133_pad_0"), val = tensor<int32, [4]>([1, 1, 1, 1])];
            tensor<int32, []> input_133_groups_0 = const()[name = tensor<string, []>("input_133_groups_0"), val = tensor<int32, []>(480)];
            tensor<int32, [2]> input_133_strides_0 = const()[name = tensor<string, []>("input_133_strides_0"), val = tensor<int32, [2]>([1, 1])];
            tensor<int32, [2]> input_133_dilations_0 = const()[name = tensor<string, []>("input_133_dilations_0"), val = tensor<int32, [2]>([1, 1])];
            tensor<fp16, [480, 1, 3, 3]> Conv_105_weight_to_fp16 = const()[name = tensor<string, []>("Conv_105_weight_to_fp16"), val = tensor<fp16, [480, 1, 3, 3]>(BLOBFILE(path = tensor<string, []>("@model_path/weights/weight.bin"), offset = tensor<uint64, []>(487232)))];
            tensor<fp16, [480]> Conv_105_bias_to_fp16 = const()[name = tensor<string, []>("Conv_105_bias_to_fp16"), val = tensor<fp16, [480]>(BLOBFILE(path = tensor<string, []>("@model_path/weights/weight.bin"), offset = tensor<uint64, []>(495936)))];
            tensor<fp16, [1, 480, 8, 6]> input_133_cast_fp16 = conv(bias = Conv_105_bias_to_fp16, dilations = input_133_dilations_0, groups = input_133_groups_0, pad = input_133_pad_0, pad_type = input_133_pad_type_0, strides = input_133_strides_0, weight = Conv_105_weight_to_fp16, x = input_131_cast_fp16)[name = tensor<string, []>("input_133_cast_fp16")];
            tensor<fp16, [1, 480, 8, 6]> input_tensor_15_cast_fp16 = silu(x = input_133_cast_fp16)[name = tensor<string, []>("input_tensor_15_cast_fp16")];
            tensor<int32, [2]> input_135_axes_0 = const()[name = tensor<string, []>("input_135_axes_0"), val = tensor<int32, [2]>([2, 3])];
            tensor<bool, []> input_135_keep_dims_0 = const()[name = tensor<string, []>("input_135_keep_dims_0"), val = tensor<bool, []>(true)];
            tensor<fp16, [1, 480, 1, 1]> input_135_cast_fp16 = reduce_mean(axes = input_135_axes_0, keep_dims = input_135_keep_dims_0, x = input_tensor_15_cast_fp16)[name = tensor<string, []>("input_135_cast_fp16")];
            tensor<string, []> input_137_pad_type_0 = const()[name = tensor<string, []>("input_137_pad_type_0"), val = tensor<string, []>("valid")];
            tensor<int32, [2]> input_137_strides_0 = const()[name = tensor<string, []>("input_137_strides_0"), val = tensor<int32, [2]>([1, 1])];
            tensor<int32, [4]> input_137_pad_0 = const()[name = tensor<string, []>("input_137_pad_0"), val = tensor<int32, [4]>([0, 0, 0, 0])];
            tensor<int32, [2]> input_137_dilations_0 = const()[name = tensor<string, []>("input_137_dilations_0"), val = tensor<int32, [2]>([1, 1])];
            tensor<int32, []> input_137_groups_0 = const()[name = tensor<string, []>("input_137_groups_0"), val = tensor<int32, []>(1)];
            tensor<fp16, [20, 480, 1, 1]> Conv_109_weight_to_fp16 = const()[name = tensor<string, []>("Conv_109_weight_to_fp16"), val = tensor<fp16, [20, 480, 1, 1]>(BLOBFILE(path = tensor<string, []>("@model_path/weights/weight.bin"), offset = tensor<uint64, []>(496960)))];
            tensor<fp16, [20]> Conv_109_bias_to_fp16 = const()[name = tensor<string, []>("Conv_109_bias_to_fp16"), val = tensor<fp16, [20]>(BLOBFILE(path = tensor<string, []>("@model_path/weights/weight.bin"), offset = tensor<uint64, []>(516224)))];
            tensor<fp16, [1, 20, 1, 1]> input_137_cast_fp16 = conv(bias = Conv_109_bias_to_fp16, dilations = input_137_dilations_0, groups = input_137_groups_0, pad = input_137_pad_0, pad_type = input_137_pad_type_0, strides = input_137_strides_0, weight = Conv_109_weight_to_fp16, x = input_135_cast_fp16)[name = tensor<string, []>("input_137_cast_fp16")];
            tensor<fp16, [1, 20, 1, 1]> input_139_cast_fp16 = silu(x = input_137_cast_fp16)[name = tensor<string, []>("input_139_cast_fp16")];
            tensor<string, []> input_141_pad_type_0 = const()[name = tensor<string, []>("input_141_pad_type_0"), val = tensor<string, []>("valid")];
            tensor<int32, [2]> input_141_strides_0 = const()[name = tensor<string, []>("input_141_strides_0"), val = tensor<int32, [2]>([1, 1])];
            tensor<int32, [4]> input_141_pad_0 = const()[name = tensor<string, []>("input_141_pad_0"), val = tensor<int32, [4]>([0, 0, 0, 0])];
            tensor<int32, [2]> input_141_dilations_0 = const()[name = tensor<string, []>("input_141_dilations_0"), val = tensor<int32, [2]>([1, 1])];
            tensor<int32, []> input_141_groups_0 = const()[name = tensor<string, []>("input_141_groups_0"), val = tensor<int32, []>(1)];
            tensor<fp16, [480, 20, 1, 1]> Conv_112_weight_to_fp16 = const()[name = tensor<string, []>("Conv_112_weight_to_fp16"), val = tensor<fp16, [480, 20, 1, 1]>(BLOBFILE(path = tensor<string, []>("@model_path/weights/weight.bin"), offset = tensor<uint64, []>(516352)))];
            tensor<fp16, [480]> Conv_112_bias_to_fp16 = const()[name = tensor<string, []>("Conv_112_bias_to_fp16"), val = tensor<fp16, [480]>(BLOBFILE(path = tensor<string, []>("@model_path/weights/weight.bin"), offset = tensor<uint64, []>(535616)))];
            tensor<fp16, [1, 480, 1, 1]> input_141_cast_fp16 = conv(bias = Conv_112_bias_to_fp16, dilations = input_141_dilations_0, groups = input_141_groups_0, pad = input_141_pad_0, pad_type = input_141_pad_type_0, strides = input_141_strides_0, weight = Conv_112_weight_to_fp16, x = input_139_cast_fp16)[name = tensor<string, []>("input_141_cast_fp16")];
            tensor<fp16, [1, 480, 1, 1]> first_21_cast_fp16 = sigmoid(x = input_141_cast_fp16)[name = tensor<string, []>("first_21_cast_fp16")];
            tensor<fp16, [1, 480, 8, 6]> input_143_cast_fp16 = mul(x = first_21_cast_fp16, y = input_tensor_15_cast_fp16)[name = tensor<string, []>("input_143_cast_fp16")];
            tensor<string, []> first_23_pad_type_0 = const()[name = tensor<string, []>("first_23_pad_type_0"), val = tensor<string, []>("valid")];
            tensor<int32, [2]> first_23_strides_0 = const()[name = tensor<string, []>("first_23_strides_0"), val = tensor<int32, [2]>([1, 1])];
            tensor<int32, [4]> first_23_pad_0 = const()[name = tensor<string, []>("first_23_pad_0"), val = tensor<int32, [4]>([0, 0, 0, 0])];
            tensor<int32, [2]> first_23_dilations_0 = const()[name = tensor<string, []>("first_23_dilations_0"), val = tensor<int32, [2]>([1, 1])];
            tensor<int32, []> first_23_groups_0 = const()[name = tensor<string, []>("first_23_groups_0"), val = tensor<int32, []>(1)];
            tensor<fp16, [80, 480, 1, 1]> Conv_115_weight_to_fp16 = const()[name = tensor<string, []>("Conv_115_weight_to_fp16"), val = tensor<fp16, [80, 480, 1, 1]>(BLOBFILE(path = tensor<string, []>("@model_path/weights/weight.bin"), offset = tensor<uint64, []>(536640)))];
            tensor<fp16, [80]> Conv_115_bias_to_fp16 = const()[name = tensor<string, []>("Conv_115_bias_to_fp16"), val = tensor<fp16, [80]>(BLOBFILE(path = tensor<string, []>("@model_path/weights/weight.bin"), offset = tensor<uint64, []>(613504)))];
            tensor<fp16, [1, 80, 8, 6]> first_23_cast_fp16 = conv(bias = Conv_115_bias_to_fp16, dilations = first_23_dilations_0, groups = first_23_groups_0, pad = first_23_pad_0, pad_type = first_23_pad_type_0, strides = first_23_strides_0, weight = Conv_115_weight_to_fp16, x = input_143_cast_fp16)[name = tensor<string, []>("first_23_cast_fp16")];
            tensor<fp16, [1, 80, 8, 6]> input_145_cast_fp16 = add(x = first_23_cast_fp16, y = input_127_cast_fp16)[name = tensor<string, []>("input_145_cast_fp16")];
            tensor<string, []> input_147_pad_type_0 = const()[name = tensor<string, []>("input_147_pad_type_0"), val = tensor<string, []>("valid")];
            tensor<int32, [2]> input_147_strides_0 = const()[name = tensor<string, []>("input_147_strides_0"), val = tensor<int32, [2]>([1, 1])];
            tensor<int32, [4]> input_147_pad_0 = const()[name = tensor<string, []>("input_147_pad_0"), val = tensor<int32, [4]>([0, 0, 0, 0])];
            tensor<int32, [2]> input_147_dilations_0 = const()[name = tensor<string, []>("input_147_dilations_0"), val = tensor<int32, [2]>([1, 1])];
            tensor<int32, []> input_147_groups_0 = const()[name = tensor<string, []>("input_147_groups_0"), val = tensor<int32, []>(1)];
            tensor<fp16, [480, 80, 1, 1]> Conv_117_weight_to_fp16 = const()[name = tensor<string, []>("Conv_117_weight_to_fp16"), val = tensor<fp16, [480, 80, 1, 1]>(BLOBFILE(path = tensor<string, []>("@model_path/weights/weight.bin"), offset = tensor<uint64, []>(613760)))];
            tensor<fp16, [480]> Conv_117_bias_to_fp16 = const()[name = tensor<string, []>("Conv_117_bias_to_fp16"), val = tensor<fp16, [480]>(BLOBFILE(path = tensor<string, []>("@model_path/weights/weight.bin"), offset = tensor<uint64, []>(690624)))];
            tensor<fp16, [1, 480, 8, 6]> input_147_cast_fp16 = conv(bias = Conv_117_bias_to_fp16, dilations = input_147_dilations_0, groups = input_147_groups_0, pad = input_147_pad_0, pad_type = input_147_pad_type_0, strides = input_147_strides_0, weight = Conv_117_weight_to_fp16, x = input_145_cast_fp16)[name = tensor<string, []>("input_147_cast_fp16")];
            tensor<fp16, [1, 480, 8, 6]> input_149_cast_fp16 = silu(x = input_147_cast_fp16)[name = tensor<string, []>("input_149_cast_fp16")];
            tensor<string, []> input_151_pad_type_0 = const()[name = tensor<string, []>("input_151_pad_type_0"), val = tensor<string, []>("custom")];
            tensor<int32, [4]> input_151_pad_0 = const()[name = tensor<string, []>("input_151_pad_0"), val = tensor<int32, [4]>([2, 2, 2, 2])];
            tensor<int32, []> input_151_groups_0 = const()[name = tensor<string, []>("input_151_groups_0"), val = tensor<int32, []>(480)];
            tensor<int32, [2]> input_151_strides_0 = const()[name = tensor<string, []>("input_151_strides_0"), val = tensor<int32, [2]>([1, 1])];
            tensor<int32, [2]> input_151_dilations_0 = const()[name = tensor<string, []>("input_151_dilations_0"), val = tensor<int32, [2]>([1, 1])];
            tensor<fp16, [480, 1, 5, 5]> Conv_120_weight_to_fp16 = const()[name = tensor<string, []>("Conv_120_weight_to_fp16"), val = tensor<fp16, [480, 1, 5, 5]>(BLOBFILE(path = tensor<string, []>("@model_path/weights/weight.bin"), offset = tensor<uint64, []>(691648)))];
            tensor<fp16, [480]> Conv_120_bias_to_fp16 = const()[name = tensor<string, []>("Conv_120_bias_to_fp16"), val = tensor<fp16, [480]>(BLOBFILE(path = tensor<string, []>("@model_path/weights/weight.bin"), offset = tensor<uint64, []>(715712)))];
            tensor<fp16, [1, 480, 8, 6]> input_151_cast_fp16 = conv(bias = Conv_120_bias_to_fp16, dilations = input_151_dilations_0, groups = input_151_groups_0, pad = input_151_pad_0, pad_type = input_151_pad_type_0, strides = input_151_strides_0, weight = Conv_120_weight_to_fp16, x = input_149_cast_fp16)[name = tensor<string, []>("input_151_cast_fp16")];
            tensor<fp16, [1, 480, 8, 6]> input_tensor_17_cast_fp16 = silu(x = input_151_cast_fp16)[name = tensor<string, []>("input_tensor_17_cast_fp16")];
            tensor<int32, [2]> input_153_axes_0 = const()[name = tensor<string, []>("input_153_axes_0"), val = tensor<int32, [2]>([2, 3])];
            tensor<bool, []> input_153_keep_dims_0 = const()[name = tensor<string, []>("input_153_keep_dims_0"), val = tensor<bool, []>(true)];
            tensor<fp16, [1, 480, 1, 1]> input_153_cast_fp16 = reduce_mean(axes = input_153_axes_0, keep_dims = input_153_keep_dims_0, x = input_tensor_17_cast_fp16)[name = tensor<string, []>("input_153_cast_fp16")];
            tensor<string, []> input_155_pad_type_0 = const()[name = tensor<string, []>("input_155_pad_type_0"), val = tensor<string, []>("valid")];
            tensor<int32, [2]> input_155_strides_0 = const()[name = tensor<string, []>("input_155_strides_0"), val = tensor<int32, [2]>([1, 1])];
            tensor<int32, [4]> input_155_pad_0 = const()[name = tensor<string, []>("input_155_pad_0"), val = tensor<int32, [4]>([0, 0, 0, 0])];
            tensor<int32, [2]> input_155_dilations_0 = const()[name = tensor<string, []>("input_155_dilations_0"), val = tensor<int32, [2]>([1, 1])];
            tensor<int32, []> input_155_groups_0 = const()[name = tensor<string, []>("input_155_groups_0"), val = tensor<int32, []>(1)];
            tensor<fp16, [20, 480, 1, 1]> Conv_124_weight_to_fp16 = const()[name = tensor<string, []>("Conv_124_weight_to_fp16"), val = tensor<fp16, [20, 480, 1, 1]>(BLOBFILE(path = tensor<string, []>("@model_path/weights/weight.bin"), offset = tensor<uint64, []>(716736)))];
            tensor<fp16, [20]> Conv_124_bias_to_fp16 = const()[name = tensor<string, []>("Conv_124_bias_to_fp16"), val = tensor<fp16, [20]>(BLOBFILE(path = tensor<string, []>("@model_path/weights/weight.bin"), offset = tensor<uint64, []>(736000)))];
            tensor<fp16, [1, 20, 1, 1]> input_155_cast_fp16 = conv(bias = Conv_124_bias_to_fp16, dilations = input_155_dilations_0, groups = input_155_groups_0, pad = input_155_pad_0, pad_type = input_155_pad_type_0, strides = input_155_strides_0, weight = Conv_124_weight_to_fp16, x = input_153_cast_fp16)[name = tensor<string, []>("input_155_cast_fp16")];
            tensor<fp16, [1, 20, 1, 1]> input_157_cast_fp16 = silu(x = input_155_cast_fp16)[name = tensor<string, []>("input_157_cast_fp16")];
            tensor<string, []> input_159_pad_type_0 = const()[name = tensor<string, []>("input_159_pad_type_0"), val = tensor<string, []>("valid")];
            tensor<int32, [2]> input_159_strides_0 = const()[name = tensor<string, []>("input_159_strides_0"), val = tensor<int32, [2]>([1, 1])];
            tensor<int32, [4]> input_159_pad_0 = const()[name = tensor<string, []>("input_159_pad_0"), val = tensor<int32, [4]>([0, 0, 0, 0])];
            tensor<int32, [2]> input_159_dilations_0 = const()[name = tensor<string, []>("input_159_dilations_0"), val = tensor<int32, [2]>([1, 1])];
            tensor<int32, []> input_159_groups_0 = const()[name = tensor<string, []>("input_159_groups_0"), val = tensor<int32, []>(1)];
            tensor<fp16, [480, 20, 1, 1]> Conv_127_weight_to_fp16 = const()[name = tensor<string, []>("Conv_127_weight_to_fp16"), val = tensor<fp16, [480, 20, 1, 1]>(BLOBFILE(path = tensor<string, []>("@model_path/weights/weight.bin"), offset = tensor<uint64, []>(736128)))];
            tensor<fp16, [480]> Conv_127_bias_to_fp16 = const()[name = tensor<string, []>("Conv_127_bias_to_fp16"), val = tensor<fp16, [480]>(BLOBFILE(path = tensor<string, []>("@model_path/weights/weight.bin"), offset = tensor<uint64, []>(755392)))];
            tensor<fp16, [1, 480, 1, 1]> input_159_cast_fp16 = conv(bias = Conv_127_bias_to_fp16, dilations = input_159_dilations_0, groups = input_159_groups_0, pad = input_159_pad_0, pad_type = input_159_pad_type_0, strides = input_159_strides_0, weight = Conv_127_weight_to_fp16, x = input_157_cast_fp16)[name = tensor<string, []>("input_159_cast_fp16")];
            tensor<fp16, [1, 480, 1, 1]> first_25_cast_fp16 = sigmoid(x = input_159_cast_fp16)[name = tensor<string, []>("first_25_cast_fp16")];
            tensor<fp16, [1, 480, 8, 6]> input_161_cast_fp16 = mul(x = first_25_cast_fp16, y = input_tensor_17_cast_fp16)[name = tensor<string, []>("input_161_cast_fp16")];
            tensor<string, []> input_163_pad_type_0 = const()[name = tensor<string, []>("input_163_pad_type_0"), val = tensor<string, []>("valid")];
            tensor<int32, [2]> input_163_strides_0 = const()[name = tensor<string, []>("input_163_strides_0"), val = tensor<int32, [2]>([1, 1])];
            tensor<int32, [4]> input_163_pad_0 = const()[name = tensor<string, []>("input_163_pad_0"), val = tensor<int32, [4]>([0, 0, 0, 0])];
            tensor<int32, [2]> input_163_dilations_0 = const()[name = tensor<string, []>("input_163_dilations_0"), val = tensor<int32, [2]>([1, 1])];
            tensor<int32, []> input_163_groups_0 = const()[name = tensor<string, []>("input_163_groups_0"), val = tensor<int32, []>(1)];
            tensor<fp16, [112, 480, 1, 1]> Conv_130_weight_to_fp16 = const()[name = tensor<string, []>("Conv_130_weight_to_fp16"), val = tensor<fp16, [112, 480, 1, 1]>(BLOBFILE(path = tensor<string, []>("@model_path/weights/weight.bin"), offset = tensor<uint64, []>(756416)))];
            tensor<fp16, [112]> Conv_130_bias_to_fp16 = const()[name = tensor<string, []>("Conv_130_bias_to_fp16"), val = tensor<fp16, [112]>(BLOBFILE(path = tensor<string, []>("@model_path/weights/weight.bin"), offset = tensor<uint64, []>(864000)))];
            tensor<fp16, [1, 112, 8, 6]> input_163_cast_fp16 = conv(bias = Conv_130_bias_to_fp16, dilations = input_163_dilations_0, groups = input_163_groups_0, pad = input_163_pad_0, pad_type = input_163_pad_type_0, strides = input_163_strides_0, weight = Conv_130_weight_to_fp16, x = input_161_cast_fp16)[name = tensor<string, []>("input_163_cast_fp16")];
            tensor<string, []> input_165_pad_type_0 = const()[name = tensor<string, []>("input_165_pad_type_0"), val = tensor<string, []>("valid")];
            tensor<int32, [2]> input_165_strides_0 = const()[name = tensor<string, []>("input_165_strides_0"), val = tensor<int32, [2]>([1, 1])];
            tensor<int32, [4]> input_165_pad_0 = const()[name = tensor<string, []>("input_165_pad_0"), val = tensor<int32, [4]>([0, 0, 0, 0])];
            tensor<int32, [2]> input_165_dilations_0 = const()[name = tensor<string, []>("input_165_dilations_0"), val = tensor<int32, [2]>([1, 1])];
            tensor<int32, []> input_165_groups_0 = const()[name = tensor<string, []>("input_165_groups_0"), val = tensor<int32, []>(1)];
            tensor<fp16, [672, 112, 1, 1]> Conv_131_weight_to_fp16 = const()[name = tensor<string, []>("Conv_131_weight_to_fp16"), val = tensor<fp16, [672, 112, 1, 1]>(BLOBFILE(path = tensor<string, []>("@model_path/weights/weight.bin"), offset = tensor<uint64, []>(864320)))];
            tensor<fp16, [672]> Conv_131_bias_to_fp16 = const()[name = tensor<string, []>("Conv_131_bias_to_fp16"), val = tensor<fp16, [672]>(BLOBFILE(path = tensor<string, []>("@model_path/weights/weight.bin"), offset = tensor<uint64, []>(1014912)))];
            tensor<fp16, [1, 672, 8, 6]> input_165_cast_fp16 = conv(bias = Conv_131_bias_to_fp16, dilations = input_165_dilations_0, groups = input_165_groups_0, pad = input_165_pad_0, pad_type = input_165_pad_type_0, strides = input_165_strides_0, weight = Conv_131_weight_to_fp16, x = input_163_cast_fp16)[name = tensor<string, []>("input_165_cast_fp16")];
            tensor<fp16, [1, 672, 8, 6]> input_167_cast_fp16 = silu(x = input_165_cast_fp16)[name = tensor<string, []>("input_167_cast_fp16")];
            tensor<string, []> input_169_pad_type_0 = const()[name = tensor<string, []>("input_169_pad_type_0"), val = tensor<string, []>("custom")];
            tensor<int32, [4]> input_169_pad_0 = const()[name = tensor<string, []>("input_169_pad_0"), val = tensor<int32, [4]>([2, 2, 2, 2])];
            tensor<int32, []> input_169_groups_0 = const()[name = tensor<string, []>("input_169_groups_0"), val = tensor<int32, []>(672)];
            tensor<int32, [2]> input_169_strides_0 = const()[name = tensor<string, []>("input_169_strides_0"), val = tensor<int32, [2]>([1, 1])];
            tensor<int32, [2]> input_169_dilations_0 = const()[name = tensor<string, []>("input_169_dilations_0"), val = tensor<int32, [2]>([1, 1])];
            tensor<fp16, [672, 1, 5, 5]> Conv_134_weight_to_fp16 = const()[name = tensor<string, []>("Conv_134_weight_to_fp16"), val = tensor<fp16, [672, 1, 5, 5]>(BLOBFILE(path = tensor<string, []>("@model_path/weights/weight.bin"), offset = tensor<uint64, []>(1016320)))];
            tensor<fp16, [672]> Conv_134_bias_to_fp16 = const()[name = tensor<string, []>("Conv_134_bias_to_fp16"), val = tensor<fp16, [672]>(BLOBFILE(path = tensor<string, []>("@model_path/weights/weight.bin"), offset = tensor<uint64, []>(1049984)))];
            tensor<fp16, [1, 672, 8, 6]> input_169_cast_fp16 = conv(bias = Conv_134_bias_to_fp16, dilations = input_169_dilations_0, groups = input_169_groups_0, pad = input_169_pad_0, pad_type = input_169_pad_type_0, strides = input_169_strides_0, weight = Conv_134_weight_to_fp16, x = input_167_cast_fp16)[name = tensor<string, []>("input_169_cast_fp16")];
            tensor<fp16, [1, 672, 8, 6]> input_tensor_19_cast_fp16 = silu(x = input_169_cast_fp16)[name = tensor<string, []>("input_tensor_19_cast_fp16")];
            tensor<int32, [2]> input_171_axes_0 = const()[name = tensor<string, []>("input_171_axes_0"), val = tensor<int32, [2]>([2, 3])];
            tensor<bool, []> input_171_keep_dims_0 = const()[name = tensor<string, []>("input_171_keep_dims_0"), val = tensor<bool, []>(true)];
            tensor<fp16, [1, 672, 1, 1]> input_171_cast_fp16 = reduce_mean(axes = input_171_axes_0, keep_dims = input_171_keep_dims_0, x = input_tensor_19_cast_fp16)[name = tensor<string, []>("input_171_cast_fp16")];
            tensor<string, []> input_173_pad_type_0 = const()[name = tensor<string, []>("input_173_pad_type_0"), val = tensor<string, []>("valid")];
            tensor<int32, [2]> input_173_strides_0 = const()[name = tensor<string, []>("input_173_strides_0"), val = tensor<int32, [2]>([1, 1])];
            tensor<int32, [4]> input_173_pad_0 = const()[name = tensor<string, []>("input_173_pad_0"), val = tensor<int32, [4]>([0, 0, 0, 0])];
            tensor<int32, [2]> input_173_dilations_0 = const()[name = tensor<string, []>("input_173_dilations_0"), val = tensor<int32, [2]>([1, 1])];
            tensor<int32, []> input_173_groups_0 = const()[name = tensor<string, []>("input_173_groups_0"), val = tensor<int32, []>(1)];
            tensor<fp16, [28, 672, 1, 1]> Conv_138_weight_to_fp16 = const()[name = tensor<string, []>("Conv_138_weight_to_fp16"), val = tensor<fp16, [28, 672, 1, 1]>(BLOBFILE(path = tensor<string, []>("@model_path/weights/weight.bin"), offset = tensor<uint64, []>(1051392)))];
            tensor<fp16, [28]> Conv_138_bias_to_fp16 = const()[name = tensor<string, []>("Conv_138_bias_to_fp16"), val = tensor<fp16, [28]>(BLOBFILE(path = tensor<string, []>("@model_path/weights/weight.bin"), offset = tensor<uint64, []>(1089088)))];
            tensor<fp16, [1, 28, 1, 1]> input_173_cast_fp16 = conv(bias = Conv_138_bias_to_fp16, dilations = input_173_dilations_0, groups = input_173_groups_0, pad = input_173_pad_0, pad_type = input_173_pad_type_0, strides = input_173_strides_0, weight = Conv_138_weight_to_fp16, x = input_171_cast_fp16)[name = tensor<string, []>("input_173_cast_fp16")];
            tensor<fp16, [1, 28, 1, 1]> input_175_cast_fp16 = silu(x = input_173_cast_fp16)[name = tensor<string, []>("input_175_cast_fp16")];
            tensor<string, []> input_177_pad_type_0 = const()[name = tensor<string, []>("input_177_pad_type_0"), val = tensor<string, []>("valid")];
            tensor<int32, [2]> input_177_strides_0 = const()[name = tensor<string, []>("input_177_strides_0"), val = tensor<int32, [2]>([1, 1])];
            tensor<int32, [4]> input_177_pad_0 = const()[name = tensor<string, []>("input_177_pad_0"), val = tensor<int32, [4]>([0, 0, 0, 0])];
            tensor<int32, [2]> input_177_dilations_0 = const()[name = tensor<string, []>("input_177_dilations_0"), val = tensor<int32, [2]>([1, 1])];
            tensor<int32, []> input_177_groups_0 = const()[name = tensor<string, []>("input_177_groups_0"), val = tensor<int32, []>(1)];
            tensor<fp16, [672, 28, 1, 1]> Conv_141_weight_to_fp16 = const()[name = tensor<string, []>("Conv_141_weight_to_fp16"), val = tensor<fp16, [672, 28, 1, 1]>(BLOBFILE(path = tensor<string, []>("@model_path/weights/weight.bin"), offset = tensor<uint64, []>(1089216)))];
            tensor<fp16, [672]> Conv_141_bias_to_fp16 = const()[name = tensor<string, []>("Conv_141_bias_to_fp16"), val = tensor<fp16, [672]>(BLOBFILE(path = tensor<string, []>("@model_path/weights/weight.bin"), offset = tensor<uint64, []>(1126912)))];
            tensor<fp16, [1, 672, 1, 1]> input_177_cast_fp16 = conv(bias = Conv_141_bias_to_fp16, dilations = input_177_dilations_0, groups = input_177_groups_0, pad = input_177_pad_0, pad_type = input_177_pad_type_0, strides = input_177_strides_0, weight = Conv_141_weight_to_fp16, x = input_175_cast_fp16)[name = tensor<string, []>("input_177_cast_fp16")];
            tensor<fp16, [1, 672, 1, 1]> first_27_cast_fp16 = sigmoid(x = input_177_cast_fp16)[name = tensor<string, []>("first_27_cast_fp16")];
            tensor<fp16, [1, 672, 8, 6]> input_179_cast_fp16 = mul(x = first_27_cast_fp16, y = input_tensor_19_cast_fp16)[name = tensor<string, []>("input_179_cast_fp16")];
            tensor<string, []> first_29_pad_type_0 = const()[name = tensor<string, []>("first_29_pad_type_0"), val = tensor<string, []>("valid")];
            tensor<int32, [2]> first_29_strides_0 = const()[name = tensor<string, []>("first_29_strides_0"), val = tensor<int32, [2]>([1, 1])];
            tensor<int32, [4]> first_29_pad_0 = const()[name = tensor<string, []>("first_29_pad_0"), val = tensor<int32, [4]>([0, 0, 0, 0])];
            tensor<int32, [2]> first_29_dilations_0 = const()[name = tensor<string, []>("first_29_dilations_0"), val = tensor<int32, [2]>([1, 1])];
            tensor<int32, []> first_29_groups_0 = const()[name = tensor<string, []>("first_29_groups_0"), val = tensor<int32, []>(1)];
            tensor<fp16, [112, 672, 1, 1]> Conv_144_weight_to_fp16 = const()[name = tensor<string, []>("Conv_144_weight_to_fp16"), val = tensor<fp16, [112, 672, 1, 1]>(BLOBFILE(path = tensor<string, []>("@model_path/weights/weight.bin"), offset = tensor<uint64, []>(1128320)))];
            tensor<fp16, [112]> Conv_144_bias_to_fp16 = const()[name = tensor<string, []>("Conv_144_bias_to_fp16"), val = tensor<fp16, [112]>(BLOBFILE(path = tensor<string, []>("@model_path/weights/weight.bin"), offset = tensor<uint64, []>(1278912)))];
            tensor<fp16, [1, 112, 8, 6]> first_29_cast_fp16 = conv(bias = Conv_144_bias_to_fp16, dilations = first_29_dilations_0, groups = first_29_groups_0, pad = first_29_pad_0, pad_type = first_29_pad_type_0, strides = first_29_strides_0, weight = Conv_144_weight_to_fp16, x = input_179_cast_fp16)[name = tensor<string, []>("first_29_cast_fp16")];
            tensor<fp16, [1, 112, 8, 6]> input_181_cast_fp16 = add(x = first_29_cast_fp16, y = input_163_cast_fp16)[name = tensor<string, []>("input_181_cast_fp16")];
            tensor<string, []> input_183_pad_type_0 = const()[name = tensor<string, []>("input_183_pad_type_0"), val = tensor<string, []>("valid")];
            tensor<int32, [2]> input_183_strides_0 = const()[name = tensor<string, []>("input_183_strides_0"), val = tensor<int32, [2]>([1, 1])];
            tensor<int32, [4]> input_183_pad_0 = const()[name = tensor<string, []>("input_183_pad_0"), val = tensor<int32, [4]>([0, 0, 0, 0])];
            tensor<int32, [2]> input_183_dilations_0 = const()[name = tensor<string, []>("input_183_dilations_0"), val = tensor<int32, [2]>([1, 1])];
            tensor<int32, []> input_183_groups_0 = const()[name = tensor<string, []>("input_183_groups_0"), val = tensor<int32, []>(1)];
            tensor<fp16, [672, 112, 1, 1]> Conv_146_weight_to_fp16 = const()[name = tensor<string, []>("Conv_146_weight_to_fp16"), val = tensor<fp16, [672, 112, 1, 1]>(BLOBFILE(path = tensor<string, []>("@model_path/weights/weight.bin"), offset = tensor<uint64, []>(1279232)))];
            tensor<fp16, [672]> Conv_146_bias_to_fp16 = const()[name = tensor<string, []>("Conv_146_bias_to_fp16"), val = tensor<fp16, [672]>(BLOBFILE(path = tensor<string, []>("@model_path/weights/weight.bin"), offset = tensor<uint64, []>(1429824)))];
            tensor<fp16, [1, 672, 8, 6]> input_183_cast_fp16 = conv(bias = Conv_146_bias_to_fp16, dilations = input_183_dilations_0, groups = input_183_groups_0, pad = input_183_pad_0, pad_type = input_183_pad_type_0, strides = input_183_strides_0, weight = Conv_146_weight_to_fp16, x = input_181_cast_fp16)[name = tensor<string, []>("input_183_cast_fp16")];
            tensor<fp16, [1, 672, 8, 6]> input_185_cast_fp16 = silu(x = input_183_cast_fp16)[name = tensor<string, []>("input_185_cast_fp16")];
            tensor<string, []> input_187_pad_type_0 = const()[name = tensor<string, []>("input_187_pad_type_0"), val = tensor<string, []>("custom")];
            tensor<int32, [4]> input_187_pad_0 = const()[name = tensor<string, []>("input_187_pad_0"), val = tensor<int32, [4]>([2, 2, 2, 2])];
            tensor<int32, []> input_187_groups_0 = const()[name = tensor<string, []>("input_187_groups_0"), val = tensor<int32, []>(672)];
            tensor<int32, [2]> input_187_strides_0 = const()[name = tensor<string, []>("input_187_strides_0"), val = tensor<int32, [2]>([1, 1])];
            tensor<int32, [2]> input_187_dilations_0 = const()[name = tensor<string, []>("input_187_dilations_0"), val = tensor<int32, [2]>([1, 1])];
            tensor<fp16, [672, 1, 5, 5]> Conv_149_weight_to_fp16 = const()[name = tensor<string, []>("Conv_149_weight_to_fp16"), val = tensor<fp16, [672, 1, 5, 5]>(BLOBFILE(path = tensor<string, []>("@model_path/weights/weight.bin"), offset = tensor<uint64, []>(1431232)))];
            tensor<fp16, [672]> Conv_149_bias_to_fp16 = const()[name = tensor<string, []>("Conv_149_bias_to_fp16"), val = tensor<fp16, [672]>(BLOBFILE(path = tensor<string, []>("@model_path/weights/weight.bin"), offset = tensor<uint64, []>(1464896)))];
            tensor<fp16, [1, 672, 8, 6]> input_187_cast_fp16 = conv(bias = Conv_149_bias_to_fp16, dilations = input_187_dilations_0, groups = input_187_groups_0, pad = input_187_pad_0, pad_type = input_187_pad_type_0, strides = input_187_strides_0, weight = Conv_149_weight_to_fp16, x = input_185_cast_fp16)[name = tensor<string, []>("input_187_cast_fp16")];
            tensor<fp16, [1, 672, 8, 6]> input_tensor_21_cast_fp16 = silu(x = input_187_cast_fp16)[name = tensor<string, []>("input_tensor_21_cast_fp16")];
            tensor<int32, [2]> input_189_axes_0 = const()[name = tensor<string, []>("input_189_axes_0"), val = tensor<int32, [2]>([2, 3])];
            tensor<bool, []> input_189_keep_dims_0 = const()[name = tensor<string, []>("input_189_keep_dims_0"), val = tensor<bool, []>(true)];
            tensor<fp16, [1, 672, 1, 1]> input_189_cast_fp16 = reduce_mean(axes = input_189_axes_0, keep_dims = input_189_keep_dims_0, x = input_tensor_21_cast_fp16)[name = tensor<string, []>("input_189_cast_fp16")];
            tensor<string, []> input_191_pad_type_0 = const()[name = tensor<string, []>("input_191_pad_type_0"), val = tensor<string, []>("valid")];
            tensor<int32, [2]> input_191_strides_0 = const()[name = tensor<string, []>("input_191_strides_0"), val = tensor<int32, [2]>([1, 1])];
            tensor<int32, [4]> input_191_pad_0 = const()[name = tensor<string, []>("input_191_pad_0"), val = tensor<int32, [4]>([0, 0, 0, 0])];
            tensor<int32, [2]> input_191_dilations_0 = const()[name = tensor<string, []>("input_191_dilations_0"), val = tensor<int32, [2]>([1, 1])];
            tensor<int32, []> input_191_groups_0 = const()[name = tensor<string, []>("input_191_groups_0"), val = tensor<int32, []>(1)];
            tensor<fp16, [28, 672, 1, 1]> Conv_153_weight_to_fp16 = const()[name = tensor<string, []>("Conv_153_weight_to_fp16"), val = tensor<fp16, [28, 672, 1, 1]>(BLOBFILE(path = tensor<string, []>("@model_path/weights/weight.bin"), offset = tensor<uint64, []>(1466304)))];
            tensor<fp16, [28]> Conv_153_bias_to_fp16 = const()[name = tensor<string, []>("Conv_153_bias_to_fp16"), val = tensor<fp16, [28]>(BLOBFILE(path = tensor<string, []>("@model_path/weights/weight.bin"), offset = tensor<uint64, []>(1504000)))];
            tensor<fp16, [1, 28, 1, 1]> input_191_cast_fp16 = conv(bias = Conv_153_bias_to_fp16, dilations = input_191_dilations_0, groups = input_191_groups_0, pad = input_191_pad_0, pad_type = input_191_pad_type_0, strides = input_191_strides_0, weight = Conv_153_weight_to_fp16, x = input_189_cast_fp16)[name = tensor<string, []>("input_191_cast_fp16")];
            tensor<fp16, [1, 28, 1, 1]> input_193_cast_fp16 = silu(x = input_191_cast_fp16)[name = tensor<string, []>("input_193_cast_fp16")];
            tensor<string, []> input_195_pad_type_0 = const()[name = tensor<string, []>("input_195_pad_type_0"), val = tensor<string, []>("valid")];
            tensor<int32, [2]> input_195_strides_0 = const()[name = tensor<string, []>("input_195_strides_0"), val = tensor<int32, [2]>([1, 1])];
            tensor<int32, [4]> input_195_pad_0 = const()[name = tensor<string, []>("input_195_pad_0"), val = tensor<int32, [4]>([0, 0, 0, 0])];
            tensor<int32, [2]> input_195_dilations_0 = const()[name = tensor<string, []>("input_195_dilations_0"), val = tensor<int32, [2]>([1, 1])];
            tensor<int32, []> input_195_groups_0 = const()[name = tensor<string, []>("input_195_groups_0"), val = tensor<int32, []>(1)];
            tensor<fp16, [672, 28, 1, 1]> Conv_156_weight_to_fp16 = const()[name = tensor<string, []>("Conv_156_weight_to_fp16"), val = tensor<fp16, [672, 28, 1, 1]>(BLOBFILE(path = tensor<string, []>("@model_path/weights/weight.bin"), offset = tensor<uint64, []>(1504128)))];
            tensor<fp16, [672]> Conv_156_bias_to_fp16 = const()[name = tensor<string, []>("Conv_156_bias_to_fp16"), val = tensor<fp16, [672]>(BLOBFILE(path = tensor<string, []>("@model_path/weights/weight.bin"), offset = tensor<uint64, []>(1541824)))];
            tensor<fp16, [1, 672, 1, 1]> input_195_cast_fp16 = conv(bias = Conv_156_bias_to_fp16, dilations = input_195_dilations_0, groups = input_195_groups_0, pad = input_195_pad_0, pad_type = input_195_pad_type_0, strides = input_195_strides_0, weight = Conv_156_weight_to_fp16, x = input_193_cast_fp16)[name = tensor<string, []>("input_195_cast_fp16")];
            tensor<fp16, [1, 672, 1, 1]> first_31_cast_fp16 = sigmoid(x = input_195_cast_fp16)[name = tensor<string, []>("first_31_cast_fp16")];
            tensor<fp16, [1, 672, 8, 6]> input_197_cast_fp16 = mul(x = first_31_cast_fp16, y = input_tensor_21_cast_fp16)[name = tensor<string, []>("input_197_cast_fp16")];
            tensor<string, []> first_33_pad_type_0 = const()[name = tensor<string, []>("first_33_pad_type_0"), val = tensor<string, []>("valid")];
            tensor<int32, [2]> first_33_strides_0 = const()[name = tensor<string, []>("first_33_strides_0"), val = tensor<int32, [2]>([1, 1])];
            tensor<int32, [4]> first_33_pad_0 = const()[name = tensor<string, []>("first_33_pad_0"), val = tensor<int32, [4]>([0, 0, 0, 0])];
            tensor<int32, [2]> first_33_dilations_0 = const()[name = tensor<string, []>("first_33_dilations_0"), val = tensor<int32, [2]>([1, 1])];
            tensor<int32, []> first_33_groups_0 = const()[name = tensor<string, []>("first_33_groups_0"), val = tensor<int32, []>(1)];
            tensor<fp16, [112, 672, 1, 1]> Conv_159_weight_to_fp16 = const()[name = tensor<string, []>("Conv_159_weight_to_fp16"), val = tensor<fp16, [112, 672, 1, 1]>(BLOBFILE(path = tensor<string, []>("@model_path/weights/weight.bin"), offset = tensor<uint64, []>(1543232)))];
            tensor<fp16, [112]> Conv_159_bias_to_fp16 = const()[name = tensor<string, []>("Conv_159_bias_to_fp16"), val = tensor<fp16, [112]>(BLOBFILE(path = tensor<string, []>("@model_path/weights/weight.bin"), offset = tensor<uint64, []>(1693824)))];
            tensor<fp16, [1, 112, 8, 6]> first_33_cast_fp16 = conv(bias = Conv_159_bias_to_fp16, dilations = first_33_dilations_0, groups = first_33_groups_0, pad = first_33_pad_0, pad_type = first_33_pad_type_0, strides = first_33_strides_0, weight = Conv_159_weight_to_fp16, x = input_197_cast_fp16)[name = tensor<string, []>("first_33_cast_fp16")];
            tensor<fp16, [1, 112, 8, 6]> input_199_cast_fp16 = add(x = first_33_cast_fp16, y = input_181_cast_fp16)[name = tensor<string, []>("input_199_cast_fp16")];
            tensor<string, []> input_201_pad_type_0 = const()[name = tensor<string, []>("input_201_pad_type_0"), val = tensor<string, []>("valid")];
            tensor<int32, [2]> input_201_strides_0 = const()[name = tensor<string, []>("input_201_strides_0"), val = tensor<int32, [2]>([1, 1])];
            tensor<int32, [4]> input_201_pad_0 = const()[name = tensor<string, []>("input_201_pad_0"), val = tensor<int32, [4]>([0, 0, 0, 0])];
            tensor<int32, [2]> input_201_dilations_0 = const()[name = tensor<string, []>("input_201_dilations_0"), val = tensor<int32, [2]>([1, 1])];
            tensor<int32, []> input_201_groups_0 = const()[name = tensor<string, []>("input_201_groups_0"), val = tensor<int32, []>(1)];
            tensor<fp16, [672, 112, 1, 1]> Conv_161_weight_to_fp16 = const()[name = tensor<string, []>("Conv_161_weight_to_fp16"), val = tensor<fp16, [672, 112, 1, 1]>(BLOBFILE(path = tensor<string, []>("@model_path/weights/weight.bin"), offset = tensor<uint64, []>(1694144)))];
            tensor<fp16, [672]> Conv_161_bias_to_fp16 = const()[name = tensor<string, []>("Conv_161_bias_to_fp16"), val = tensor<fp16, [672]>(BLOBFILE(path = tensor<string, []>("@model_path/weights/weight.bin"), offset = tensor<uint64, []>(1844736)))];
            tensor<fp16, [1, 672, 8, 6]> input_201_cast_fp16 = conv(bias = Conv_161_bias_to_fp16, dilations = input_201_dilations_0, groups = input_201_groups_0, pad = input_201_pad_0, pad_type = input_201_pad_type_0, strides = input_201_strides_0, weight = Conv_161_weight_to_fp16, x = input_199_cast_fp16)[name = tensor<string, []>("input_201_cast_fp16")];
            tensor<fp16, [1, 672, 8, 6]> input_203_cast_fp16 = silu(x = input_201_cast_fp16)[name = tensor<string, []>("input_203_cast_fp16")];
            tensor<string, []> input_205_pad_type_0 = const()[name = tensor<string, []>("input_205_pad_type_0"), val = tensor<string, []>("custom")];
            tensor<int32, [4]> input_205_pad_0 = const()[name = tensor<string, []>("input_205_pad_0"), val = tensor<int32, [4]>([2, 2, 2, 2])];
            tensor<int32, [2]> input_205_strides_0 = const()[name = tensor<string, []>("input_205_strides_0"), val = tensor<int32, [2]>([2, 2])];
            tensor<int32, []> input_205_groups_0 = const()[name = tensor<string, []>("input_205_groups_0"), val = tensor<int32, []>(672)];
            tensor<int32, [2]> input_205_dilations_0 = const()[name = tensor<string, []>("input_205_dilations_0"), val = tensor<int32, [2]>([1, 1])];
            tensor<fp16, [672, 1, 5, 5]> Conv_164_weight_to_fp16 = const()[name = tensor<string, []>("Conv_164_weight_to_fp16"), val = tensor<fp16, [672, 1, 5, 5]>(BLOBFILE(path = tensor<string, []>("@model_path/weights/weight.bin"), offset = tensor<uint64, []>(1846144)))];
            tensor<fp16, [672]> Conv_164_bias_to_fp16 = const()[name = tensor<string, []>("Conv_164_bias_to_fp16"), val = tensor<fp16, [672]>(BLOBFILE(path = tensor<string, []>("@model_path/weights/weight.bin"), offset = tensor<uint64, []>(1879808)))];
            tensor<fp16, [1, 672, 4, 3]> input_205_cast_fp16 = conv(bias = Conv_164_bias_to_fp16, dilations = input_205_dilations_0, groups = input_205_groups_0, pad = input_205_pad_0, pad_type = input_205_pad_type_0, strides = input_205_strides_0, weight = Conv_164_weight_to_fp16, x = input_203_cast_fp16)[name = tensor<string, []>("input_205_cast_fp16")];
            tensor<fp16, [1, 672, 4, 3]> input_tensor_23_cast_fp16 = silu(x = input_205_cast_fp16)[name = tensor<string, []>("input_tensor_23_cast_fp16")];
            tensor<int32, [2]> input_207_axes_0 = const()[name = tensor<string, []>("input_207_axes_0"), val = tensor<int32, [2]>([2, 3])];
            tensor<bool, []> input_207_keep_dims_0 = const()[name = tensor<string, []>("input_207_keep_dims_0"), val = tensor<bool, []>(true)];
            tensor<fp16, [1, 672, 1, 1]> input_207_cast_fp16 = reduce_mean(axes = input_207_axes_0, keep_dims = input_207_keep_dims_0, x = input_tensor_23_cast_fp16)[name = tensor<string, []>("input_207_cast_fp16")];
            tensor<string, []> input_209_pad_type_0 = const()[name = tensor<string, []>("input_209_pad_type_0"), val = tensor<string, []>("valid")];
            tensor<int32, [2]> input_209_strides_0 = const()[name = tensor<string, []>("input_209_strides_0"), val = tensor<int32, [2]>([1, 1])];
            tensor<int32, [4]> input_209_pad_0 = const()[name = tensor<string, []>("input_209_pad_0"), val = tensor<int32, [4]>([0, 0, 0, 0])];
            tensor<int32, [2]> input_209_dilations_0 = const()[name = tensor<string, []>("input_209_dilations_0"), val = tensor<int32, [2]>([1, 1])];
            tensor<int32, []> input_209_groups_0 = const()[name = tensor<string, []>("input_209_groups_0"), val = tensor<int32, []>(1)];
            tensor<fp16, [28, 672, 1, 1]> Conv_168_weight_to_fp16 = const()[name = tensor<string, []>("Conv_168_weight_to_fp16"), val = tensor<fp16, [28, 672, 1, 1]>(BLOBFILE(path = tensor<string, []>("@model_path/weights/weight.bin"), offset = tensor<uint64, []>(1881216)))];
            tensor<fp16, [28]> Conv_168_bias_to_fp16 = const()[name = tensor<string, []>("Conv_168_bias_to_fp16"), val = tensor<fp16, [28]>(BLOBFILE(path = tensor<string, []>("@model_path/weights/weight.bin"), offset = tensor<uint64, []>(1918912)))];
            tensor<fp16, [1, 28, 1, 1]> input_209_cast_fp16 = conv(bias = Conv_168_bias_to_fp16, dilations = input_209_dilations_0, groups = input_209_groups_0, pad = input_209_pad_0, pad_type = input_209_pad_type_0, strides = input_209_strides_0, weight = Conv_168_weight_to_fp16, x = input_207_cast_fp16)[name = tensor<string, []>("input_209_cast_fp16")];
            tensor<fp16, [1, 28, 1, 1]> input_211_cast_fp16 = silu(x = input_209_cast_fp16)[name = tensor<string, []>("input_211_cast_fp16")];
            tensor<string, []> input_213_pad_type_0 = const()[name = tensor<string, []>("input_213_pad_type_0"), val = tensor<string, []>("valid")];
            tensor<int32, [2]> input_213_strides_0 = const()[name = tensor<string, []>("input_213_strides_0"), val = tensor<int32, [2]>([1, 1])];
            tensor<int32, [4]> input_213_pad_0 = const()[name = tensor<string, []>("input_213_pad_0"), val = tensor<int32, [4]>([0, 0, 0, 0])];
            tensor<int32, [2]> input_213_dilations_0 = const()[name = tensor<string, []>("input_213_dilations_0"), val = tensor<int32, [2]>([1, 1])];
            tensor<int32, []> input_213_groups_0 = const()[name = tensor<string, []>("input_213_groups_0"), val = tensor<int32, []>(1)];
            tensor<fp16, [672, 28, 1, 1]> Conv_171_weight_to_fp16 = const()[name = tensor<string, []>("Conv_171_weight_to_fp16"), val = tensor<fp16, [672, 28, 1, 1]>(BLOBFILE(path = tensor<string, []>("@model_path/weights/weight.bin"), offset = tensor<uint64, []>(1919040)))];
            tensor<fp16, [672]> Conv_171_bias_to_fp16 = const()[name = tensor<string, []>("Conv_171_bias_to_fp16"), val = tensor<fp16, [672]>(BLOBFILE(path = tensor<string, []>("@model_path/weights/weight.bin"), offset = tensor<uint64, []>(1956736)))];
            tensor<fp16, [1, 672, 1, 1]> input_213_cast_fp16 = conv(bias = Conv_171_bias_to_fp16, dilations = input_213_dilations_0, groups = input_213_groups_0, pad = input_213_pad_0, pad_type = input_213_pad_type_0, strides = input_213_strides_0, weight = Conv_171_weight_to_fp16, x = input_211_cast_fp16)[name = tensor<string, []>("input_213_cast_fp16")];
            tensor<fp16, [1, 672, 1, 1]> first_35_cast_fp16 = sigmoid(x = input_213_cast_fp16)[name = tensor<string, []>("first_35_cast_fp16")];
            tensor<fp16, [1, 672, 4, 3]> input_215_cast_fp16 = mul(x = first_35_cast_fp16, y = input_tensor_23_cast_fp16)[name = tensor<string, []>("input_215_cast_fp16")];
            tensor<string, []> input_217_pad_type_0 = const()[name = tensor<string, []>("input_217_pad_type_0"), val = tensor<string, []>("valid")];
            tensor<int32, [2]> input_217_strides_0 = const()[name = tensor<string, []>("input_217_strides_0"), val = tensor<int32, [2]>([1, 1])];
            tensor<int32, [4]> input_217_pad_0 = const()[name = tensor<string, []>("input_217_pad_0"), val = tensor<int32, [4]>([0, 0, 0, 0])];
            tensor<int32, [2]> input_217_dilations_0 = const()[name = tensor<string, []>("input_217_dilations_0"), val = tensor<int32, [2]>([1, 1])];
            tensor<int32, []> input_217_groups_0 = const()[name = tensor<string, []>("input_217_groups_0"), val = tensor<int32, []>(1)];
            tensor<fp16, [192, 672, 1, 1]> Conv_174_weight_to_fp16 = const()[name = tensor<string, []>("Conv_174_weight_to_fp16"), val = tensor<fp16, [192, 672, 1, 1]>(BLOBFILE(path = tensor<string, []>("@model_path/weights/weight.bin"), offset = tensor<uint64, []>(1958144)))];
            tensor<fp16, [192]> Conv_174_bias_to_fp16 = const()[name = tensor<string, []>("Conv_174_bias_to_fp16"), val = tensor<fp16, [192]>(BLOBFILE(path = tensor<string, []>("@model_path/weights/weight.bin"), offset = tensor<uint64, []>(2216256)))];
            tensor<fp16, [1, 192, 4, 3]> input_217_cast_fp16 = conv(bias = Conv_174_bias_to_fp16, dilations = input_217_dilations_0, groups = input_217_groups_0, pad = input_217_pad_0, pad_type = input_217_pad_type_0, strides = input_217_strides_0, weight = Conv_174_weight_to_fp16, x = input_215_cast_fp16)[name = tensor<string, []>("input_217_cast_fp16")];
            tensor<string, []> input_219_pad_type_0 = const()[name = tensor<string, []>("input_219_pad_type_0"), val = tensor<string, []>("valid")];
            tensor<int32, [2]> input_219_strides_0 = const()[name = tensor<string, []>("input_219_strides_0"), val = tensor<int32, [2]>([1, 1])];
            tensor<int32, [4]> input_219_pad_0 = const()[name = tensor<string, []>("input_219_pad_0"), val = tensor<int32, [4]>([0, 0, 0, 0])];
            tensor<int32, [2]> input_219_dilations_0 = const()[name = tensor<string, []>("input_219_dilations_0"), val = tensor<int32, [2]>([1, 1])];
            tensor<int32, []> input_219_groups_0 = const()[name = tensor<string, []>("input_219_groups_0"), val = tensor<int32, []>(1)];
            tensor<fp16, [1152, 192, 1, 1]> Conv_175_weight_to_fp16 = const()[name = tensor<string, []>("Conv_175_weight_to_fp16"), val = tensor<fp16, [1152, 192, 1, 1]>(BLOBFILE(path = tensor<string, []>("@model_path/weights/weight.bin"), offset = tensor<uint64, []>(2216704)))];
            tensor<fp16, [1152]> Conv_175_bias_to_fp16 = const()[name = tensor<string, []>("Conv_175_bias_to_fp16"), val = tensor<fp16, [1152]>(BLOBFILE(path = tensor<string, []>("@model_path/weights/weight.bin"), offset = tensor<uint64, []>(2659136)))];
            tensor<fp16, [1, 1152, 4, 3]> input_219_cast_fp16 = conv(bias = Conv_175_bias_to_fp16, dilations = input_219_dilations_0, groups = input_219_groups_0, pad = input_219_pad_0, pad_type = input_219_pad_type_0, strides = input_219_strides_0, weight = Conv_175_weight_to_fp16, x = input_217_cast_fp16)[name = tensor<string, []>("input_219_cast_fp16")];
            tensor<fp16, [1, 1152, 4, 3]> input_221_cast_fp16 = silu(x = input_219_cast_fp16)[name = tensor<string, []>("input_221_cast_fp16")];
            tensor<string, []> input_223_pad_type_0 = const()[name = tensor<string, []>("input_223_pad_type_0"), val = tensor<string, []>("custom")];
            tensor<int32, [4]> input_223_pad_0 = const()[name = tensor<string, []>("input_223_pad_0"), val = tensor<int32, [4]>([2, 2, 2, 2])];
            tensor<int32, []> input_223_groups_0 = const()[name = tensor<string, []>("input_223_groups_0"), val = tensor<int32, []>(1152)];
            tensor<int32, [2]> input_223_strides_0 = const()[name = tensor<string, []>("input_223_strides_0"), val = tensor<int32, [2]>([1, 1])];
            tensor<int32, [2]> input_223_dilations_0 = const()[name = tensor<string, []>("input_223_dilations_0"), val = tensor<int32, [2]>([1, 1])];
            tensor<fp16, [1152, 1, 5, 5]> Conv_178_weight_to_fp16 = const()[name = tensor<string, []>("Conv_178_weight_to_fp16"), val = tensor<fp16, [1152, 1, 5, 5]>(BLOBFILE(path = tensor<string, []>("@model_path/weights/weight.bin"), offset = tensor<uint64, []>(2661504)))];
            tensor<fp16, [1152]> Conv_178_bias_to_fp16 = const()[name = tensor<string, []>("Conv_178_bias_to_fp16"), val = tensor<fp16, [1152]>(BLOBFILE(path = tensor<string, []>("@model_path/weights/weight.bin"), offset = tensor<uint64, []>(2719168)))];
            tensor<fp16, [1, 1152, 4, 3]> input_223_cast_fp16 = conv(bias = Conv_178_bias_to_fp16, dilations = input_223_dilations_0, groups = input_223_groups_0, pad = input_223_pad_0, pad_type = input_223_pad_type_0, strides = input_223_strides_0, weight = Conv_178_weight_to_fp16, x = input_221_cast_fp16)[name = tensor<string, []>("input_223_cast_fp16")];
            tensor<fp16, [1, 1152, 4, 3]> input_tensor_25_cast_fp16 = silu(x = input_223_cast_fp16)[name = tensor<string, []>("input_tensor_25_cast_fp16")];
            tensor<int32, [2]> input_225_axes_0 = const()[name = tensor<string, []>("input_225_axes_0"), val = tensor<int32, [2]>([2, 3])];
            tensor<bool, []> input_225_keep_dims_0 = const()[name = tensor<string, []>("input_225_keep_dims_0"), val = tensor<bool, []>(true)];
            tensor<fp16, [1, 1152, 1, 1]> input_225_cast_fp16 = reduce_mean(axes = input_225_axes_0, keep_dims = input_225_keep_dims_0, x = input_tensor_25_cast_fp16)[name = tensor<string, []>("input_225_cast_fp16")];
            tensor<string, []> input_227_pad_type_0 = const()[name = tensor<string, []>("input_227_pad_type_0"), val = tensor<string, []>("valid")];
            tensor<int32, [2]> input_227_strides_0 = const()[name = tensor<string, []>("input_227_strides_0"), val = tensor<int32, [2]>([1, 1])];
            tensor<int32, [4]> input_227_pad_0 = const()[name = tensor<string, []>("input_227_pad_0"), val = tensor<int32, [4]>([0, 0, 0, 0])];
            tensor<int32, [2]> input_227_dilations_0 = const()[name = tensor<string, []>("input_227_dilations_0"), val = tensor<int32, [2]>([1, 1])];
            tensor<int32, []> input_227_groups_0 = const()[name = tensor<string, []>("input_227_groups_0"), val = tensor<int32, []>(1)];
            tensor<fp16, [48, 1152, 1, 1]> Conv_182_weight_to_fp16 = const()[name = tensor<string, []>("Conv_182_weight_to_fp16"), val = tensor<fp16, [48, 1152, 1, 1]>(BLOBFILE(path = tensor<string, []>("@model_path/weights/weight.bin"), offset = tensor<uint64, []>(2721536)))];
            tensor<fp16, [48]> Conv_182_bias_to_fp16 = const()[name = tensor<string, []>("Conv_182_bias_to_fp16"), val = tensor<fp16, [48]>(BLOBFILE(path = tensor<string, []>("@model_path/weights/weight.bin"), offset = tensor<uint64, []>(2832192)))];
            tensor<fp16, [1, 48, 1, 1]> input_227_cast_fp16 = conv(bias = Conv_182_bias_to_fp16, dilations = input_227_dilations_0, groups = input_227_groups_0, pad = input_227_pad_0, pad_type = input_227_pad_type_0, strides = input_227_strides_0, weight = Conv_182_weight_to_fp16, x = input_225_cast_fp16)[name = tensor<string, []>("input_227_cast_fp16")];
            tensor<fp16, [1, 48, 1, 1]> input_229_cast_fp16 = silu(x = input_227_cast_fp16)[name = tensor<string, []>("input_229_cast_fp16")];
            tensor<string, []> input_231_pad_type_0 = const()[name = tensor<string, []>("input_231_pad_type_0"), val = tensor<string, []>("valid")];
            tensor<int32, [2]> input_231_strides_0 = const()[name = tensor<string, []>("input_231_strides_0"), val = tensor<int32, [2]>([1, 1])];
            tensor<int32, [4]> input_231_pad_0 = const()[name = tensor<string, []>("input_231_pad_0"), val = tensor<int32, [4]>([0, 0, 0, 0])];
            tensor<int32, [2]> input_231_dilations_0 = const()[name = tensor<string, []>("input_231_dilations_0"), val = tensor<int32, [2]>([1, 1])];
            tensor<int32, []> input_231_groups_0 = const()[name = tensor<string, []>("input_231_groups_0"), val = tensor<int32, []>(1)];
            tensor<fp16, [1152, 48, 1, 1]> Conv_185_weight_to_fp16 = const()[name = tensor<string, []>("Conv_185_weight_to_fp16"), val = tensor<fp16, [1152, 48, 1, 1]>(BLOBFILE(path = tensor<string, []>("@model_path/weights/weight.bin"), offset = tensor<uint64, []>(2832384)))];
            tensor<fp16, [1152]> Conv_185_bias_to_fp16 = const()[name = tensor<string, []>("Conv_185_bias_to_fp16"), val = tensor<fp16, [1152]>(BLOBFILE(path = tensor<string, []>("@model_path/weights/weight.bin"), offset = tensor<uint64, []>(2943040)))];
            tensor<fp16, [1, 1152, 1, 1]> input_231_cast_fp16 = conv(bias = Conv_185_bias_to_fp16, dilations = input_231_dilations_0, groups = input_231_groups_0, pad = input_231_pad_0, pad_type = input_231_pad_type_0, strides = input_231_strides_0, weight = Conv_185_weight_to_fp16, x = input_229_cast_fp16)[name = tensor<string, []>("input_231_cast_fp16")];
            tensor<fp16, [1, 1152, 1, 1]> first_37_cast_fp16 = sigmoid(x = input_231_cast_fp16)[name = tensor<string, []>("first_37_cast_fp16")];
            tensor<fp16, [1, 1152, 4, 3]> input_233_cast_fp16 = mul(x = first_37_cast_fp16, y = input_tensor_25_cast_fp16)[name = tensor<string, []>("input_233_cast_fp16")];
            tensor<string, []> first_39_pad_type_0 = const()[name = tensor<string, []>("first_39_pad_type_0"), val = tensor<string, []>("valid")];
            tensor<int32, [2]> first_39_strides_0 = const()[name = tensor<string, []>("first_39_strides_0"), val = tensor<int32, [2]>([1, 1])];
            tensor<int32, [4]> first_39_pad_0 = const()[name = tensor<string, []>("first_39_pad_0"), val = tensor<int32, [4]>([0, 0, 0, 0])];
            tensor<int32, [2]> first_39_dilations_0 = const()[name = tensor<string, []>("first_39_dilations_0"), val = tensor<int32, [2]>([1, 1])];
            tensor<int32, []> first_39_groups_0 = const()[name = tensor<string, []>("first_39_groups_0"), val = tensor<int32, []>(1)];
            tensor<fp16, [192, 1152, 1, 1]> Conv_188_weight_to_fp16 = const()[name = tensor<string, []>("Conv_188_weight_to_fp16"), val = tensor<fp16, [192, 1152, 1, 1]>(BLOBFILE(path = tensor<string, []>("@model_path/weights/weight.bin"), offset = tensor<uint64, []>(2945408)))];
            tensor<fp16, [192]> Conv_188_bias_to_fp16 = const()[name = tensor<string, []>("Conv_188_bias_to_fp16"), val = tensor<fp16, [192]>(BLOBFILE(path = tensor<string, []>("@model_path/weights/weight.bin"), offset = tensor<uint64, []>(3387840)))];
            tensor<fp16, [1, 192, 4, 3]> first_39_cast_fp16 = conv(bias = Conv_188_bias_to_fp16, dilations = first_39_dilations_0, groups = first_39_groups_0, pad = first_39_pad_0, pad_type = first_39_pad_type_0, strides = first_39_strides_0, weight = Conv_188_weight_to_fp16, x = input_233_cast_fp16)[name = tensor<string, []>("first_39_cast_fp16")];
            tensor<fp16, [1, 192, 4, 3]> input_235_cast_fp16 = add(x = first_39_cast_fp16, y = input_217_cast_fp16)[name = tensor<string, []>("input_235_cast_fp16")];
            tensor<string, []> input_237_pad_type_0 = const()[name = tensor<string, []>("input_237_pad_type_0"), val = tensor<string, []>("valid")];
            tensor<int32, [2]> input_237_strides_0 = const()[name = tensor<string, []>("input_237_strides_0"), val = tensor<int32, [2]>([1, 1])];
            tensor<int32, [4]> input_237_pad_0 = const()[name = tensor<string, []>("input_237_pad_0"), val = tensor<int32, [4]>([0, 0, 0, 0])];
            tensor<int32, [2]> input_237_dilations_0 = const()[name = tensor<string, []>("input_237_dilations_0"), val = tensor<int32, [2]>([1, 1])];
            tensor<int32, []> input_237_groups_0 = const()[name = tensor<string, []>("input_237_groups_0"), val = tensor<int32, []>(1)];
            tensor<fp16, [1152, 192, 1, 1]> Conv_190_weight_to_fp16 = const()[name = tensor<string, []>("Conv_190_weight_to_fp16"), val = tensor<fp16, [1152, 192, 1, 1]>(BLOBFILE(path = tensor<string, []>("@model_path/weights/weight.bin"), offset = tensor<uint64, []>(3388288)))];
            tensor<fp16, [1152]> Conv_190_bias_to_fp16 = const()[name = tensor<string, []>("Conv_190_bias_to_fp16"), val = tensor<fp16, [1152]>(BLOBFILE(path = tensor<string, []>("@model_path/weights/weight.bin"), offset = tensor<uint64, []>(3830720)))];
            tensor<fp16, [1, 1152, 4, 3]> input_237_cast_fp16 = conv(bias = Conv_190_bias_to_fp16, dilations = input_237_dilations_0, groups = input_237_groups_0, pad = input_237_pad_0, pad_type = input_237_pad_type_0, strides = input_237_strides_0, weight = Conv_190_weight_to_fp16, x = input_235_cast_fp16)[name = tensor<string, []>("input_237_cast_fp16")];
            tensor<fp16, [1, 1152, 4, 3]> input_239_cast_fp16 = silu(x = input_237_cast_fp16)[name = tensor<string, []>("input_239_cast_fp16")];
            tensor<string, []> input_241_pad_type_0 = const()[name = tensor<string, []>("input_241_pad_type_0"), val = tensor<string, []>("custom")];
            tensor<int32, [4]> input_241_pad_0 = const()[name = tensor<string, []>("input_241_pad_0"), val = tensor<int32, [4]>([2, 2, 2, 2])];
            tensor<int32, []> input_241_groups_0 = const()[name = tensor<string, []>("input_241_groups_0"), val = tensor<int32, []>(1152)];
            tensor<int32, [2]> input_241_strides_0 = const()[name = tensor<string, []>("input_241_strides_0"), val = tensor<int32, [2]>([1, 1])];
            tensor<int32, [2]> input_241_dilations_0 = const()[name = tensor<string, []>("input_241_dilations_0"), val = tensor<int32, [2]>([1, 1])];
            tensor<fp16, [1152, 1, 5, 5]> Conv_193_weight_to_fp16 = const()[name = tensor<string, []>("Conv_193_weight_to_fp16"), val = tensor<fp16, [1152, 1, 5, 5]>(BLOBFILE(path = tensor<string, []>("@model_path/weights/weight.bin"), offset = tensor<uint64, []>(3833088)))];
            tensor<fp16, [1152]> Conv_193_bias_to_fp16 = const()[name = tensor<string, []>("Conv_193_bias_to_fp16"), val = tensor<fp16, [1152]>(BLOBFILE(path = tensor<string, []>("@model_path/weights/weight.bin"), offset = tensor<uint64, []>(3890752)))];
            tensor<fp16, [1, 1152, 4, 3]> input_241_cast_fp16 = conv(bias = Conv_193_bias_to_fp16, dilations = input_241_dilations_0, groups = input_241_groups_0, pad = input_241_pad_0, pad_type = input_241_pad_type_0, strides = input_241_strides_0, weight = Conv_193_weight_to_fp16, x = input_239_cast_fp16)[name = tensor<string, []>("input_241_cast_fp16")];
            tensor<fp16, [1, 1152, 4, 3]> input_tensor_27_cast_fp16 = silu(x = input_241_cast_fp16)[name = tensor<string, []>("input_tensor_27_cast_fp16")];
            tensor<int32, [2]> input_243_axes_0 = const()[name = tensor<string, []>("input_243_axes_0"), val = tensor<int32, [2]>([2, 3])];
            tensor<bool, []> input_243_keep_dims_0 = const()[name = tensor<string, []>("input_243_keep_dims_0"), val = tensor<bool, []>(true)];
            tensor<fp16, [1, 1152, 1, 1]> input_243_cast_fp16 = reduce_mean(axes = input_243_axes_0, keep_dims = input_243_keep_dims_0, x = input_tensor_27_cast_fp16)[name = tensor<string, []>("input_243_cast_fp16")];
            tensor<string, []> input_245_pad_type_0 = const()[name = tensor<string, []>("input_245_pad_type_0"), val = tensor<string, []>("valid")];
            tensor<int32, [2]> input_245_strides_0 = const()[name = tensor<string, []>("input_245_strides_0"), val = tensor<int32, [2]>([1, 1])];
            tensor<int32, [4]> input_245_pad_0 = const()[name = tensor<string, []>("input_245_pad_0"), val = tensor<int32, [4]>([0, 0, 0, 0])];
            tensor<int32, [2]> input_245_dilations_0 = const()[name = tensor<string, []>("input_245_dilations_0"), val = tensor<int32, [2]>([1, 1])];
            tensor<int32, []> input_245_groups_0 = const()[name = tensor<string, []>("input_245_groups_0"), val = tensor<int32, []>(1)];
            tensor<fp16, [48, 1152, 1, 1]> Conv_197_weight_to_fp16 = const()[name = tensor<string, []>("Conv_197_weight_to_fp16"), val = tensor<fp16, [48, 1152, 1, 1]>(BLOBFILE(path = tensor<string, []>("@model_path/weights/weight.bin"), offset = tensor<uint64, []>(3893120)))];
            tensor<fp16, [48]> Conv_197_bias_to_fp16 = const()[name = tensor<string, []>("Conv_197_bias_to_fp16"), val = tensor<fp16, [48]>(BLOBFILE(path = tensor<string, []>("@model_path/weights/weight.bin"), offset = tensor<uint64, []>(4003776)))];
            tensor<fp16, [1, 48, 1, 1]> input_245_cast_fp16 = conv(bias = Conv_197_bias_to_fp16, dilations = input_245_dilations_0, groups = input_245_groups_0, pad = input_245_pad_0, pad_type = input_245_pad_type_0, strides = input_245_strides_0, weight = Conv_197_weight_to_fp16, x = input_243_cast_fp16)[name = tensor<string, []>("input_245_cast_fp16")];
            tensor<fp16, [1, 48, 1, 1]> input_247_cast_fp16 = silu(x = input_245_cast_fp16)[name = tensor<string, []>("input_247_cast_fp16")];
            tensor<string, []> input_249_pad_type_0 = const()[name = tensor<string, []>("input_249_pad_type_0"), val = tensor<string, []>("valid")];
            tensor<int32, [2]> input_249_strides_0 = const()[name = tensor<string, []>("input_249_strides_0"), val = tensor<int32, [2]>([1, 1])];
            tensor<int32, [4]> input_249_pad_0 = const()[name = tensor<string, []>("input_249_pad_0"), val = tensor<int32, [4]>([0, 0, 0, 0])];
            tensor<int32, [2]> input_249_dilations_0 = const()[name = tensor<string, []>("input_249_dilations_0"), val = tensor<int32, [2]>([1, 1])];
            tensor<int32, []> input_249_groups_0 = const()[name = tensor<string, []>("input_249_groups_0"), val = tensor<int32, []>(1)];
            tensor<fp16, [1152, 48, 1, 1]> Conv_200_weight_to_fp16 = const()[name = tensor<string, []>("Conv_200_weight_to_fp16"), val = tensor<fp16, [1152, 48, 1, 1]>(BLOBFILE(path = tensor<string, []>("@model_path/weights/weight.bin"), offset = tensor<uint64, []>(4003968)))];
            tensor<fp16, [1152]> Conv_200_bias_to_fp16 = const()[name = tensor<string, []>("Conv_200_bias_to_fp16"), val = tensor<fp16, [1152]>(BLOBFILE(path = tensor<string, []>("@model_path/weights/weight.bin"), offset = tensor<uint64, []>(4114624)))];
            tensor<fp16, [1, 1152, 1, 1]> input_249_cast_fp16 = conv(bias = Conv_200_bias_to_fp16, dilations = input_249_dilations_0, groups = input_249_groups_0, pad = input_249_pad_0, pad_type = input_249_pad_type_0, strides = input_249_strides_0, weight = Conv_200_weight_to_fp16, x = input_247_cast_fp16)[name = tensor<string, []>("input_249_cast_fp16")];
            tensor<fp16, [1, 1152, 1, 1]> first_41_cast_fp16 = sigmoid(x = input_249_cast_fp16)[name = tensor<string, []>("first_41_cast_fp16")];
            tensor<fp16, [1, 1152, 4, 3]> input_251_cast_fp16 = mul(x = first_41_cast_fp16, y = input_tensor_27_cast_fp16)[name = tensor<string, []>("input_251_cast_fp16")];
            tensor<string, []> first_43_pad_type_0 = const()[name = tensor<string, []>("first_43_pad_type_0"), val = tensor<string, []>("valid")];
            tensor<int32, [2]> first_43_strides_0 = const()[name = tensor<string, []>("first_43_strides_0"), val = tensor<int32, [2]>([1, 1])];
            tensor<int32, [4]> first_43_pad_0 = const()[name = tensor<string, []>("first_43_pad_0"), val = tensor<int32, [4]>([0, 0, 0, 0])];
            tensor<int32, [2]> first_43_dilations_0 = const()[name = tensor<string, []>("first_43_dilations_0"), val = tensor<int32, [2]>([1, 1])];
            tensor<int32, []> first_43_groups_0 = const()[name = tensor<string, []>("first_43_groups_0"), val = tensor<int32, []>(1)];
            tensor<fp16, [192, 1152, 1, 1]> Conv_203_weight_to_fp16 = const()[name = tensor<string, []>("Conv_203_weight_to_fp16"), val = tensor<fp16, [192, 1152, 1, 1]>(BLOBFILE(path = tensor<string, []>("@model_path/weights/weight.bin"), offset = tensor<uint64, []>(4116992)))];
            tensor<fp16, [192]> Conv_203_bias_to_fp16 = const()[name = tensor<string, []>("Conv_203_bias_to_fp16"), val = tensor<fp16, [192]>(BLOBFILE(path = tensor<string, []>("@model_path/weights/weight.bin"), offset = tensor<uint64, []>(4559424)))];
            tensor<fp16, [1, 192, 4, 3]> first_43_cast_fp16 = conv(bias = Conv_203_bias_to_fp16, dilations = first_43_dilations_0, groups = first_43_groups_0, pad = first_43_pad_0, pad_type = first_43_pad_type_0, strides = first_43_strides_0, weight = Conv_203_weight_to_fp16, x = input_251_cast_fp16)[name = tensor<string, []>("first_43_cast_fp16")];
            tensor<fp16, [1, 192, 4, 3]> input_253_cast_fp16 = add(x = first_43_cast_fp16, y = input_235_cast_fp16)[name = tensor<string, []>("input_253_cast_fp16")];
            tensor<string, []> input_255_pad_type_0 = const()[name = tensor<string, []>("input_255_pad_type_0"), val = tensor<string, []>("valid")];
            tensor<int32, [2]> input_255_strides_0 = const()[name = tensor<string, []>("input_255_strides_0"), val = tensor<int32, [2]>([1, 1])];
            tensor<int32, [4]> input_255_pad_0 = const()[name = tensor<string, []>("input_255_pad_0"), val = tensor<int32, [4]>([0, 0, 0, 0])];
            tensor<int32, [2]> input_255_dilations_0 = const()[name = tensor<string, []>("input_255_dilations_0"), val = tensor<int32, [2]>([1, 1])];
            tensor<int32, []> input_255_groups_0 = const()[name = tensor<string, []>("input_255_groups_0"), val = tensor<int32, []>(1)];
            tensor<fp16, [1152, 192, 1, 1]> Conv_205_weight_to_fp16 = const()[name = tensor<string, []>("Conv_205_weight_to_fp16"), val = tensor<fp16, [1152, 192, 1, 1]>(BLOBFILE(path = tensor<string, []>("@model_path/weights/weight.bin"), offset = tensor<uint64, []>(4559872)))];
            tensor<fp16, [1152]> Conv_205_bias_to_fp16 = const()[name = tensor<string, []>("Conv_205_bias_to_fp16"), val = tensor<fp16, [1152]>(BLOBFILE(path = tensor<string, []>("@model_path/weights/weight.bin"), offset = tensor<uint64, []>(5002304)))];
            tensor<fp16, [1, 1152, 4, 3]> input_255_cast_fp16 = conv(bias = Conv_205_bias_to_fp16, dilations = input_255_dilations_0, groups = input_255_groups_0, pad = input_255_pad_0, pad_type = input_255_pad_type_0, strides = input_255_strides_0, weight = Conv_205_weight_to_fp16, x = input_253_cast_fp16)[name = tensor<string, []>("input_255_cast_fp16")];
            tensor<fp16, [1, 1152, 4, 3]> input_257_cast_fp16 = silu(x = input_255_cast_fp16)[name = tensor<string, []>("input_257_cast_fp16")];
            tensor<string, []> input_259_pad_type_0 = const()[name = tensor<string, []>("input_259_pad_type_0"), val = tensor<string, []>("custom")];
            tensor<int32, [4]> input_259_pad_0 = const()[name = tensor<string, []>("input_259_pad_0"), val = tensor<int32, [4]>([2, 2, 2, 2])];
            tensor<int32, []> input_259_groups_0 = const()[name = tensor<string, []>("input_259_groups_0"), val = tensor<int32, []>(1152)];
            tensor<int32, [2]> input_259_strides_0 = const()[name = tensor<string, []>("input_259_strides_0"), val = tensor<int32, [2]>([1, 1])];
            tensor<int32, [2]> input_259_dilations_0 = const()[name = tensor<string, []>("input_259_dilations_0"), val = tensor<int32, [2]>([1, 1])];
            tensor<fp16, [1152, 1, 5, 5]> Conv_208_weight_to_fp16 = const()[name = tensor<string, []>("Conv_208_weight_to_fp16"), val = tensor<fp16, [1152, 1, 5, 5]>(BLOBFILE(path = tensor<string, []>("@model_path/weights/weight.bin"), offset = tensor<uint64, []>(5004672)))];
            tensor<fp16, [1152]> Conv_208_bias_to_fp16 = const()[name = tensor<string, []>("Conv_208_bias_to_fp16"), val = tensor<fp16, [1152]>(BLOBFILE(path = tensor<string, []>("@model_path/weights/weight.bin"), offset = tensor<uint64, []>(5062336)))];
            tensor<fp16, [1, 1152, 4, 3]> input_259_cast_fp16 = conv(bias = Conv_208_bias_to_fp16, dilations = input_259_dilations_0, groups = input_259_groups_0, pad = input_259_pad_0, pad_type = input_259_pad_type_0, strides = input_259_strides_0, weight = Conv_208_weight_to_fp16, x = input_257_cast_fp16)[name = tensor<string, []>("input_259_cast_fp16")];
            tensor<fp16, [1, 1152, 4, 3]> input_tensor_29_cast_fp16 = silu(x = input_259_cast_fp16)[name = tensor<string, []>("input_tensor_29_cast_fp16")];
            tensor<int32, [2]> input_261_axes_0 = const()[name = tensor<string, []>("input_261_axes_0"), val = tensor<int32, [2]>([2, 3])];
            tensor<bool, []> input_261_keep_dims_0 = const()[name = tensor<string, []>("input_261_keep_dims_0"), val = tensor<bool, []>(true)];
            tensor<fp16, [1, 1152, 1, 1]> input_261_cast_fp16 = reduce_mean(axes = input_261_axes_0, keep_dims = input_261_keep_dims_0, x = input_tensor_29_cast_fp16)[name = tensor<string, []>("input_261_cast_fp16")];
            tensor<string, []> input_263_pad_type_0 = const()[name = tensor<string, []>("input_263_pad_type_0"), val = tensor<string, []>("valid")];
            tensor<int32, [2]> input_263_strides_0 = const()[name = tensor<string, []>("input_263_strides_0"), val = tensor<int32, [2]>([1, 1])];
            tensor<int32, [4]> input_263_pad_0 = const()[name = tensor<string, []>("input_263_pad_0"), val = tensor<int32, [4]>([0, 0, 0, 0])];
            tensor<int32, [2]> input_263_dilations_0 = const()[name = tensor<string, []>("input_263_dilations_0"), val = tensor<int32, [2]>([1, 1])];
            tensor<int32, []> input_263_groups_0 = const()[name = tensor<string, []>("input_263_groups_0"), val = tensor<int32, []>(1)];
            tensor<fp16, [48, 1152, 1, 1]> Conv_212_weight_to_fp16 = const()[name = tensor<string, []>("Conv_212_weight_to_fp16"), val = tensor<fp16, [48, 1152, 1, 1]>(BLOBFILE(path = tensor<string, []>("@model_path/weights/weight.bin"), offset = tensor<uint64, []>(5064704)))];
            tensor<fp16, [48]> Conv_212_bias_to_fp16 = const()[name = tensor<string, []>("Conv_212_bias_to_fp16"), val = tensor<fp16, [48]>(BLOBFILE(path = tensor<string, []>("@model_path/weights/weight.bin"), offset = tensor<uint64, []>(5175360)))];
            tensor<fp16, [1, 48, 1, 1]> input_263_cast_fp16 = conv(bias = Conv_212_bias_to_fp16, dilations = input_263_dilations_0, groups = input_263_groups_0, pad = input_263_pad_0, pad_type = input_263_pad_type_0, strides = input_263_strides_0, weight = Conv_212_weight_to_fp16, x = input_261_cast_fp16)[name = tensor<string, []>("input_263_cast_fp16")];
            tensor<fp16, [1, 48, 1, 1]> input_265_cast_fp16 = silu(x = input_263_cast_fp16)[name = tensor<string, []>("input_265_cast_fp16")];
            tensor<string, []> input_267_pad_type_0 = const()[name = tensor<string, []>("input_267_pad_type_0"), val = tensor<string, []>("valid")];
            tensor<int32, [2]> input_267_strides_0 = const()[name = tensor<string, []>("input_267_strides_0"), val = tensor<int32, [2]>([1, 1])];
            tensor<int32, [4]> input_267_pad_0 = const()[name = tensor<string, []>("input_267_pad_0"), val = tensor<int32, [4]>([0, 0, 0, 0])];
            tensor<int32, [2]> input_267_dilations_0 = const()[name = tensor<string, []>("input_267_dilations_0"), val = tensor<int32, [2]>([1, 1])];
            tensor<int32, []> input_267_groups_0 = const()[name = tensor<string, []>("input_267_groups_0"), val = tensor<int32, []>(1)];
            tensor<fp16, [1152, 48, 1, 1]> Conv_215_weight_to_fp16 = const()[name = tensor<string, []>("Conv_215_weight_to_fp16"), val = tensor<fp16, [1152, 48, 1, 1]>(BLOBFILE(path = tensor<string, []>("@model_path/weights/weight.bin"), offset = tensor<uint64, []>(5175552)))];
            tensor<fp16, [1152]> Conv_215_bias_to_fp16 = const()[name = tensor<string, []>("Conv_215_bias_to_fp16"), val = tensor<fp16, [1152]>(BLOBFILE(path = tensor<string, []>("@model_path/weights/weight.bin"), offset = tensor<uint64, []>(5286208)))];
            tensor<fp16, [1, 1152, 1, 1]> input_267_cast_fp16 = conv(bias = Conv_215_bias_to_fp16, dilations = input_267_dilations_0, groups = input_267_groups_0, pad = input_267_pad_0, pad_type = input_267_pad_type_0, strides = input_267_strides_0, weight = Conv_215_weight_to_fp16, x = input_265_cast_fp16)[name = tensor<string, []>("input_267_cast_fp16")];
            tensor<fp16, [1, 1152, 1, 1]> first_45_cast_fp16 = sigmoid(x = input_267_cast_fp16)[name = tensor<string, []>("first_45_cast_fp16")];
            tensor<fp16, [1, 1152, 4, 3]> input_269_cast_fp16 = mul(x = first_45_cast_fp16, y = input_tensor_29_cast_fp16)[name = tensor<string, []>("input_269_cast_fp16")];
            tensor<string, []> first_47_pad_type_0 = const()[name = tensor<string, []>("first_47_pad_type_0"), val = tensor<string, []>("valid")];
            tensor<int32, [2]> first_47_strides_0 = const()[name = tensor<string, []>("first_47_strides_0"), val = tensor<int32, [2]>([1, 1])];
            tensor<int32, [4]> first_47_pad_0 = const()[name = tensor<string, []>("first_47_pad_0"), val = tensor<int32, [4]>([0, 0, 0, 0])];
            tensor<int32, [2]> first_47_dilations_0 = const()[name = tensor<string, []>("first_47_dilations_0"), val = tensor<int32, [2]>([1, 1])];
            tensor<int32, []> first_47_groups_0 = const()[name = tensor<string, []>("first_47_groups_0"), val = tensor<int32, []>(1)];
            tensor<fp16, [192, 1152, 1, 1]> Conv_218_weight_to_fp16 = const()[name = tensor<string, []>("Conv_218_weight_to_fp16"), val = tensor<fp16, [192, 1152, 1, 1]>(BLOBFILE(path = tensor<string, []>("@model_path/weights/weight.bin"), offset = tensor<uint64, []>(5288576)))];
            tensor<fp16, [192]> Conv_218_bias_to_fp16 = const()[name = tensor<string, []>("Conv_218_bias_to_fp16"), val = tensor<fp16, [192]>(BLOBFILE(path = tensor<string, []>("@model_path/weights/weight.bin"), offset = tensor<uint64, []>(5731008)))];
            tensor<fp16, [1, 192, 4, 3]> first_47_cast_fp16 = conv(bias = Conv_218_bias_to_fp16, dilations = first_47_dilations_0, groups = first_47_groups_0, pad = first_47_pad_0, pad_type = first_47_pad_type_0, strides = first_47_strides_0, weight = Conv_218_weight_to_fp16, x = input_269_cast_fp16)[name = tensor<string, []>("first_47_cast_fp16")];
            tensor<fp16, [1, 192, 4, 3]> input_271_cast_fp16 = add(x = first_47_cast_fp16, y = input_253_cast_fp16)[name = tensor<string, []>("input_271_cast_fp16")];
            tensor<string, []> input_273_pad_type_0 = const()[name = tensor<string, []>("input_273_pad_type_0"), val = tensor<string, []>("valid")];
            tensor<int32, [2]> input_273_strides_0 = const()[name = tensor<string, []>("input_273_strides_0"), val = tensor<int32, [2]>([1, 1])];
            tensor<int32, [4]> input_273_pad_0 = const()[name = tensor<string, []>("input_273_pad_0"), val = tensor<int32, [4]>([0, 0, 0, 0])];
            tensor<int32, [2]> input_273_dilations_0 = const()[name = tensor<string, []>("input_273_dilations_0"), val = tensor<int32, [2]>([1, 1])];
            tensor<int32, []> input_273_groups_0 = const()[name = tensor<string, []>("input_273_groups_0"), val = tensor<int32, []>(1)];
            tensor<fp16, [1152, 192, 1, 1]> Conv_220_weight_to_fp16 = const()[name = tensor<string, []>("Conv_220_weight_to_fp16"), val = tensor<fp16, [1152, 192, 1, 1]>(BLOBFILE(path = tensor<string, []>("@model_path/weights/weight.bin"), offset = tensor<uint64, []>(5731456)))];
            tensor<fp16, [1152]> Conv_220_bias_to_fp16 = const()[name = tensor<string, []>("Conv_220_bias_to_fp16"), val = tensor<fp16, [1152]>(BLOBFILE(path = tensor<string, []>("@model_path/weights/weight.bin"), offset = tensor<uint64, []>(6173888)))];
            tensor<fp16, [1, 1152, 4, 3]> input_273_cast_fp16 = conv(bias = Conv_220_bias_to_fp16, dilations = input_273_dilations_0, groups = input_273_groups_0, pad = input_273_pad_0, pad_type = input_273_pad_type_0, strides = input_273_strides_0, weight = Conv_220_weight_to_fp16, x = input_271_cast_fp16)[name = tensor<string, []>("input_273_cast_fp16")];
            tensor<fp16, [1, 1152, 4, 3]> input_275_cast_fp16 = silu(x = input_273_cast_fp16)[name = tensor<string, []>("input_275_cast_fp16")];
            tensor<string, []> input_277_pad_type_0 = const()[name = tensor<string, []>("input_277_pad_type_0"), val = tensor<string, []>("custom")];
            tensor<int32, [4]> input_277_pad_0 = const()[name = tensor<string, []>("input_277_pad_0"), val = tensor<int32, [4]>([1, 1, 1, 1])];
            tensor<int32, []> input_277_groups_0 = const()[name = tensor<string, []>("input_277_groups_0"), val = tensor<int32, []>(1152)];
            tensor<int32, [2]> input_277_strides_0 = const()[name = tensor<string, []>("input_277_strides_0"), val = tensor<int32, [2]>([1, 1])];
            tensor<int32, [2]> input_277_dilations_0 = const()[name = tensor<string, []>("input_277_dilations_0"), val = tensor<int32, [2]>([1, 1])];
            tensor<fp16, [1152, 1, 3, 3]> Conv_223_weight_to_fp16 = const()[name = tensor<string, []>("Conv_223_weight_to_fp16"), val = tensor<fp16, [1152, 1, 3, 3]>(BLOBFILE(path = tensor<string, []>("@model_path/weights/weight.bin"), offset = tensor<uint64, []>(6176256)))];
            tensor<fp16, [1152]> Conv_223_bias_to_fp16 = const()[name = tensor<string, []>("Conv_223_bias_to_fp16"), val = tensor<fp16, [1152]>(BLOBFILE(path = tensor<string, []>("@model_path/weights/weight.bin"), offset = tensor<uint64, []>(6197056)))];
            tensor<fp16, [1, 1152, 4, 3]> input_277_cast_fp16 = conv(bias = Conv_223_bias_to_fp16, dilations = input_277_dilations_0, groups = input_277_groups_0, pad = input_277_pad_0, pad_type = input_277_pad_type_0, strides = input_277_strides_0, weight = Conv_223_weight_to_fp16, x = input_275_cast_fp16)[name = tensor<string, []>("input_277_cast_fp16")];
            tensor<fp16, [1, 1152, 4, 3]> input_tensor_31_cast_fp16 = silu(x = input_277_cast_fp16)[name = tensor<string, []>("input_tensor_31_cast_fp16")];
            tensor<int32, [2]> input_279_axes_0 = const()[name = tensor<string, []>("input_279_axes_0"), val = tensor<int32, [2]>([2, 3])];
            tensor<bool, []> input_279_keep_dims_0 = const()[name = tensor<string, []>("input_279_keep_dims_0"), val = tensor<bool, []>(true)];
            tensor<fp16, [1, 1152, 1, 1]> input_279_cast_fp16 = reduce_mean(axes = input_279_axes_0, keep_dims = input_279_keep_dims_0, x = input_tensor_31_cast_fp16)[name = tensor<string, []>("input_279_cast_fp16")];
            tensor<string, []> input_281_pad_type_0 = const()[name = tensor<string, []>("input_281_pad_type_0"), val = tensor<string, []>("valid")];
            tensor<int32, [2]> input_281_strides_0 = const()[name = tensor<string, []>("input_281_strides_0"), val = tensor<int32, [2]>([1, 1])];
            tensor<int32, [4]> input_281_pad_0 = const()[name = tensor<string, []>("input_281_pad_0"), val = tensor<int32, [4]>([0, 0, 0, 0])];
            tensor<int32, [2]> input_281_dilations_0 = const()[name = tensor<string, []>("input_281_dilations_0"), val = tensor<int32, [2]>([1, 1])];
            tensor<int32, []> input_281_groups_0 = const()[name = tensor<string, []>("input_281_groups_0"), val = tensor<int32, []>(1)];
            tensor<fp16, [48, 1152, 1, 1]> Conv_227_weight_to_fp16 = const()[name = tensor<string, []>("Conv_227_weight_to_fp16"), val = tensor<fp16, [48, 1152, 1, 1]>(BLOBFILE(path = tensor<string, []>("@model_path/weights/weight.bin"), offset = tensor<uint64, []>(6199424)))];
            tensor<fp16, [48]> Conv_227_bias_to_fp16 = const()[name = tensor<string, []>("Conv_227_bias_to_fp16"), val = tensor<fp16, [48]>(BLOBFILE(path = tensor<string, []>("@model_path/weights/weight.bin"), offset = tensor<uint64, []>(6310080)))];
            tensor<fp16, [1, 48, 1, 1]> input_281_cast_fp16 = conv(bias = Conv_227_bias_to_fp16, dilations = input_281_dilations_0, groups = input_281_groups_0, pad = input_281_pad_0, pad_type = input_281_pad_type_0, strides = input_281_strides_0, weight = Conv_227_weight_to_fp16, x = input_279_cast_fp16)[name = tensor<string, []>("input_281_cast_fp16")];
            tensor<fp16, [1, 48, 1, 1]> input_283_cast_fp16 = silu(x = input_281_cast_fp16)[name = tensor<string, []>("input_283_cast_fp16")];
            tensor<string, []> input_285_pad_type_0 = const()[name = tensor<string, []>("input_285_pad_type_0"), val = tensor<string, []>("valid")];
            tensor<int32, [2]> input_285_strides_0 = const()[name = tensor<string, []>("input_285_strides_0"), val = tensor<int32, [2]>([1, 1])];
            tensor<int32, [4]> input_285_pad_0 = const()[name = tensor<string, []>("input_285_pad_0"), val = tensor<int32, [4]>([0, 0, 0, 0])];
            tensor<int32, [2]> input_285_dilations_0 = const()[name = tensor<string, []>("input_285_dilations_0"), val = tensor<int32, [2]>([1, 1])];
            tensor<int32, []> input_285_groups_0 = const()[name = tensor<string, []>("input_285_groups_0"), val = tensor<int32, []>(1)];
            tensor<fp16, [1152, 48, 1, 1]> Conv_230_weight_to_fp16 = const()[name = tensor<string, []>("Conv_230_weight_to_fp16"), val = tensor<fp16, [1152, 48, 1, 1]>(BLOBFILE(path = tensor<string, []>("@model_path/weights/weight.bin"), offset = tensor<uint64, []>(6310272)))];
            tensor<fp16, [1152]> Conv_230_bias_to_fp16 = const()[name = tensor<string, []>("Conv_230_bias_to_fp16"), val = tensor<fp16, [1152]>(BLOBFILE(path = tensor<string, []>("@model_path/weights/weight.bin"), offset = tensor<uint64, []>(6420928)))];
            tensor<fp16, [1, 1152, 1, 1]> input_285_cast_fp16 = conv(bias = Conv_230_bias_to_fp16, dilations = input_285_dilations_0, groups = input_285_groups_0, pad = input_285_pad_0, pad_type = input_285_pad_type_0, strides = input_285_strides_0, weight = Conv_230_weight_to_fp16, x = input_283_cast_fp16)[name = tensor<string, []>("input_285_cast_fp16")];
            tensor<fp16, [1, 1152, 1, 1]> first_cast_fp16 = sigmoid(x = input_285_cast_fp16)[name = tensor<string, []>("first_cast_fp16")];
            tensor<fp16, [1, 1152, 4, 3]> input_287_cast_fp16 = mul(x = first_cast_fp16, y = input_tensor_31_cast_fp16)[name = tensor<string, []>("input_287_cast_fp16")];
            tensor<string, []> input_289_pad_type_0 = const()[name = tensor<string, []>("input_289_pad_type_0"), val = tensor<string, []>("valid")];
            tensor<int32, [2]> input_289_strides_0 = const()[name = tensor<string, []>("input_289_strides_0"), val = tensor<int32, [2]>([1, 1])];
            tensor<int32, [4]> input_289_pad_0 = const()[name = tensor<string, []>("input_289_pad_0"), val = tensor<int32, [4]>([0, 0, 0, 0])];
            tensor<int32, [2]> input_289_dilations_0 = const()[name = tensor<string, []>("input_289_dilations_0"), val = tensor<int32, [2]>([1, 1])];
            tensor<int32, []> input_289_groups_0 = const()[name = tensor<string, []>("input_289_groups_0"), val = tensor<int32, []>(1)];
            tensor<fp16, [320, 1152, 1, 1]> Conv_233_weight_to_fp16 = const()[name = tensor<string, []>("Conv_233_weight_to_fp16"), val = tensor<fp16, [320, 1152, 1, 1]>(BLOBFILE(path = tensor<string, []>("@model_path/weights/weight.bin"), offset = tensor<uint64, []>(6423296)))];
            tensor<fp16, [320]> Conv_233_bias_to_fp16 = const()[name = tensor<string, []>("Conv_233_bias_to_fp16"), val = tensor<fp16, [320]>(BLOBFILE(path = tensor<string, []>("@model_path/weights/weight.bin"), offset = tensor<uint64, []>(7160640)))];
            tensor<fp16, [1, 320, 4, 3]> input_289_cast_fp16 = conv(bias = Conv_233_bias_to_fp16, dilations = input_289_dilations_0, groups = input_289_groups_0, pad = input_289_pad_0, pad_type = input_289_pad_type_0, strides = input_289_strides_0, weight = Conv_233_weight_to_fp16, x = input_287_cast_fp16)[name = tensor<string, []>("input_289_cast_fp16")];
            tensor<string, []> input_291_pad_type_0 = const()[name = tensor<string, []>("input_291_pad_type_0"), val = tensor<string, []>("valid")];
            tensor<int32, [2]> input_291_strides_0 = const()[name = tensor<string, []>("input_291_strides_0"), val = tensor<int32, [2]>([1, 1])];
            tensor<int32, [4]> input_291_pad_0 = const()[name = tensor<string, []>("input_291_pad_0"), val = tensor<int32, [4]>([0, 0, 0, 0])];
            tensor<int32, [2]> input_291_dilations_0 = const()[name = tensor<string, []>("input_291_dilations_0"), val = tensor<int32, [2]>([1, 1])];
            tensor<int32, []> input_291_groups_0 = const()[name = tensor<string, []>("input_291_groups_0"), val = tensor<int32, []>(1)];
            tensor<fp16, [1280, 320, 1, 1]> Conv_234_weight_to_fp16 = const()[name = tensor<string, []>("Conv_234_weight_to_fp16"), val = tensor<fp16, [1280, 320, 1, 1]>(BLOBFILE(path = tensor<string, []>("@model_path/weights/weight.bin"), offset = tensor<uint64, []>(7161344)))];
            tensor<fp16, [1280]> Conv_234_bias_to_fp16 = const()[name = tensor<string, []>("Conv_234_bias_to_fp16"), val = tensor<fp16, [1280]>(BLOBFILE(path = tensor<string, []>("@model_path/weights/weight.bin"), offset = tensor<uint64, []>(7980608)))];
            tensor<fp16, [1, 1280, 4, 3]> input_291_cast_fp16 = conv(bias = Conv_234_bias_to_fp16, dilations = input_291_dilations_0, groups = input_291_groups_0, pad = input_291_pad_0, pad_type = input_291_pad_type_0, strides = input_291_strides_0, weight = Conv_234_weight_to_fp16, x = input_289_cast_fp16)[name = tensor<string, []>("input_291_cast_fp16")];
            tensor<fp16, [1, 1280, 4, 3]> input_tensor_cast_fp16 = silu(x = input_291_cast_fp16)[name = tensor<string, []>("input_tensor_cast_fp16")];
            tensor<int32, [2]> input_293_axes_0 = const()[name = tensor<string, []>("input_293_axes_0"), val = tensor<int32, [2]>([2, 3])];
            tensor<bool, []> input_293_keep_dims_0 = const()[name = tensor<string, []>("input_293_keep_dims_0"), val = tensor<bool, []>(true)];
            tensor<fp16, [1, 1280, 1, 1]> input_293_cast_fp16 = reduce_mean(axes = input_293_axes_0, keep_dims = input_293_keep_dims_0, x = input_tensor_cast_fp16)[name = tensor<string, []>("input_293_cast_fp16")];
            tensor<int32, [2]> concat_0 = const()[name = tensor<string, []>("concat_0"), val = tensor<int32, [2]>([1, 1280])];
            tensor<fp16, [1, 1280]> embeddings = reshape(shape = concat_0, x = input_293_cast_fp16)[name = tensor<string, []>("input_295_cast_fp16")];
            tensor<fp16, [400, 1280]> Gemm_239_weight_to_fp16 = const()[name = tensor<string, []>("Gemm_239_weight_to_fp16"), val = tensor<fp16, [400, 1280]>(BLOBFILE(path = tensor<string, []>("@model_path/weights/weight.bin"), offset = tensor<uint64, []>(7983232)))];
            tensor<fp16, [400]> Gemm_239_bias_to_fp16 = const()[name = tensor<string, []>("Gemm_239_bias_to_fp16"), val = tensor<fp16, [400]>(BLOBFILE(path = tensor<string, []>("@model_path/weights/weight.bin"), offset = tensor<uint64, []>(9007296)))];
            tensor<fp16, [1, 400]> linear_0_cast_fp16 = linear(bias = Gemm_239_bias_to_fp16, weight = Gemm_239_weight_to_fp16, x = embeddings)[name = tensor<string, []>("linear_0_cast_fp16")];
            tensor<fp16, [1, 400]> activations = sigmoid(x = linear_0_cast_fp16)[name = tensor<string, []>("op_1261_cast_fp16")];
        } -> (activations, embeddings);
}